question4/bidirectional_tcn_model_8.pth (torch, 171160 bytes, 38 tensors)

forward_tcn.network.0.conv1.weight f4 [16, 3, 2]
0	0xbde81b7a	-0.11333366
1	0x3de6099e	0.11232303
2	0x3eab9580	0.33512497
3	0xbef538af	-0.4789481
4	0xbe9517cb	-0.29119715
5	0xbe3c10a9	-0.1836573
6	0xbda5201d	-0.08062766
7	0x3e0aa4f2	0.13539484
8	0x3db96f53	0.090544365
9	0x3d783af5	0.0606031
10	0xbede600b	-0.4343265
11	0xbcc1eaa8	-0.023671463
12	0x3ea2a1d8	0.31764102
13	0xbec21bdd	-0.37911883
14	0x3edef6d1	0.4354768
15	0x3eddd566	0.43326873
16	0x3dab768e	0.08372222
17	0xbe5a0544	-0.21291071
18	0xbe878ed5	-0.2647616
19	0x3ef06cf6	0.4695813
20	0xbe76aee9	-0.2409016
21	0xbdef8ee7	-0.11697178
22	0xbd764073	-0.060120057
23	0xbeacce6c	-0.33751237
24	0x3e83cf72	0.25744206
25	0xbe957606	-0.29191607
26	0x3e846284	0.2585641
27	0x3ee2c79e	0.4429292
28	0x3e532be2	0.20622209
29	0x3e8b6c0f	0.2723088
30	0x3ef93ffb	0.48681626
31	0xbec1f8c0	-0.37885094
32	0x3e5ecd91	0.21758105
33	0xbc11d81f	-0.008901625
34	0x3ec184ba	0.37796575
35	0xbd8dc5d6	-0.069225
36	0x3d81cf0e	0.06338321
37	0x3ea258c0	0.31708336
38	0x3d8995aa	0.06717999
39	0xbe35006f	-0.17675947
40	0xbe056cf8	-0.1302985
41	0x3d816039	0.06317181
42	0x3d27eef0	0.040999353
43	0xbe86208c	-0.26196706
44	0xbd8853b5	-0.06656591
45	0x3d27496b	0.0408415
46	0xbec2f01c	-0.38073814
47	0xbe625e68	-0.22106326
48	0xbed658cd	-0.41864625
49	0x3ecb3c1e	0.39694303
50	0xbec74e2f	-0.38926837
51	0xbed1f656	-0.41008252
52	0xbe61da9e	-0.22056052
53	0x3eb64956	0.35602826
54	0x3f042877	0.51624244
55	0x3ecde6b9	0.4021509
56	0x3ecdc7a2	0.4019137
57	0x3e801865	0.25018612
58	0xbc7a1dcb	-0.015265892
59	0xbe945a1b	-0.28974995
60	0x3e9b50f5	0.30335203
61	0x3e49dc85	0.19713028
62	0xbc3c2066	-0.011482334
63	0xbcb5ccf4	-0.022192456
64	0xbe0d4a90	-0.13797975
65	0xbeade81c	-0.33966148
66	0x3e82e3f6	0.25564545
67	0x3c893bf3	0.016752219
68	0xbf184ebd	-0.59495145
69	0x3c64e151	0.013969735
70	0x3e891fe4	0.26782143
71	0xbeda3b21	-0.42623237
72	0x3ec7e47d	0.3904151
73	0x3e92a9c7	0.28645155
74	0xbed00909	-0.40631893
75	0xbec8a16d	-0.39185658
76	0xbd5b18fd	-0.053490628
77	0xbd3e378d	-0.046439696
78	0x3de0bc63	0.10973432
79	0x3d84456d	0.064585544
80	0x3ecceaec	0.4002298
81	0x3e277370	0.1635263
82	0x3cff3c4f	0.031156687
83	0xbe788bb4	-0.24272043
84	0xbec52a88	-0.3850901
85	0x3ee9c7b4	0.45660174
86	0x3e94225f	0.28932473
87	0xbeade70d	-0.3396534
88	0x3ec1487d	0.37750617
89	0xbe95c212	-0.29249626
90	0xbe3d4b0a	-0.18485656
91	0x3e0bd287	0.13654529
92	0x3b05220d	0.0020314485
93	0x3e938916	0.28815526
94	0xbefd0d51	-0.49424222
95	0xbef572d6	-0.47939175

forward_tcn.network.0.conv1.bias f4 [16]
0	0x3e8173d4	0.25283682
1	0xbe644dfc	-0.22295374
2	0xbd456bb0	-0.048198402
3	0x3da35221	0.07974649
4	0xbeaee7ad	-0.3416113
5	0xbe550e0c	-0.2080614
6	0xbdefde56	-0.11712329
7	0x3ebb2bdb	0.36556897
8	0xbd90f794	-0.07078472
9	0x3e9a9a52	0.30195862
10	0xbd6fc867	-0.058540728
11	0xbe0f6df7	-0.14006792
12	0xbe53f5ec	-0.2069928
13	0xbeb1f4ed	-0.34757176
14	0xbd3ea269	-0.046541605
15	0x3e81e2d8	0.2536838

forward_tcn.network.0.conv2.weight f4 [16, 16, 2]
0	0xbe622c48	-0.22087204
1	0xbdd5bdb8	-0.104365766
2	0xbda4e7e1	-0.0805204
3	0xbdb08d6b	-0.08620723
4	0x3bdc6134	0.0067254547
5	0x3e35edbb	0.17766468
6	0x3d752e16	0.059858404
7	0x3e1cb1f2	0.15302256
8	0xbd3fdce1	-0.046841506
9	0x3e1b87df	0.1518855
10	0x3b6774e2	0.003531747
11	0xbdf1545d	-0.11783669
12	0x3dc0605a	0.093933776
13	0xbe74a616	-0.23891482
14	0xbd3c7440	-0.046009302
15	0x3dc111a4	0.09427193
16	0xbe0011ad	-0.12506743
17	0xbe5698f8	-0.2095679
18	0x3e5fd170	0.21857238
19	0x3e2e6587	0.17030917
20	0xbdb8f012	-0.09030165
21	0xbdabcfa4	-0.08389214
22	0xbda7cb59	-0.08193082
23	0x3e274b0e	0.16337225
24	0xbc911d26	-0.017714094
25	0xbe28a8ac	-0.16470593
26	0x3e71ed6f	0.2362573
27	0x3dd13ef6	0.10217087
28	0xbcf4eec8	-0.029899016
29	0xbd8f4af1	-0.06996716
30	0xbd01bd0f	-0.03167444
31	0xbe02eb36	-0.12785038
32	0x3e1f229f	0.1554055
33	0x3de6c0c9	0.112672396
34	0x3d592e48	0.053022653
35	0x3cfa2d77	0.030539257
36	0xbe57fe35	-0.21093066
37	0x3a6816c5	0.00088534906
38	0xbc850e7f	-0.016242264
39	0x3ceeb537	0.029139144
40	0x3d72a403	0.059238445
41	0x3d45709c	0.048203096
42	0x3e714107	0.23559962
43	0xbe06ef03	-0.13177113
44	0xbcf3497b	-0.029698124
45	0xbdc4357f	-0.09580516
46	0xbcd905d4	-0.026492037
47	0x3da19322	0.078893915
48	0xbd8da27f	-0.06915759
49	0x3c96bdd2	0.01840106
50	0xbe577814	-0.210419
51	0xbe29c8fe	-0.16580579
52	0x3d05daa4	0.032679215
53	0x3dd4a7a4	0.103835374
54	0x3d72ce22	0.059278615
55	0x3e055740	0.13021564
56	0xbc2ee8e7	-0.010675645
57	0xbe340354	-0.17579395
58	0xbdff7212	-0.12472929
59	0xbe7afa80	-0.2450962
60	0x3e086c72	0.13322619
61	0x3d85a30f	0.065252416
62	0x3b9eb113	0.0048428862
63	0xbd36bd4c	-0.04461412
64	0x3e5fddf7	0.21862017
65	0x3ded0fef	0.11575305
66	0xbe4845c4	-0.19557863
67	0x3e1c6985	0.15274628
68	0x3d6764fd	0.056492794
69	0x3d7843aa	0.060611404
70	0x3d92cfd3	0.071685456
71	0x3e375530	0.1790359
72	0xbd93d4e1	-0.07218338
73	0xbe2bb2d7	-0.1676744
74	0x3e6b896b	0.2300164
75	0xbe6a23b8	-0.22865188
76	0xbc4ced1f	-0.012507706
77	0x3e454c3a	0.1926736
78	0x3e292c58	0.16520822
79	0xbe3799b9	-0.17929734
80	0x3cfb20e9	0.030655341
81	0x3b7f7cbe	0.0038984264
82	0x3e2e4287	0.17017566
83	0xbd12b480	-0.03581667
84	0xbdb028a5	-0.08601502
85	0x3c8e4253	0.01736561
86	0x3e512eb1	0.20427968
87	0x3c1ac092	0.009445326
88	0xbde008b9	-0.10939164
89	0xbc3c8852	-0.011507111
90	0x3eb3996e	0.35077995
91	0xbd0212f1	-0.031756345
92	0xbe87104d	-0.26379624
93	0xbd8fe541	-0.070261486
94	0xbc1e32c0	-0.009655654
95	0x3e271b15	0.16318925
96	0x3e04484c	0.12918204
97	0xbe2fb472	-0.17158678
98	0xbe229ea7	-0.15880834
99	0x3d543153	0.05180485
100	0x3e4224b6	0.18959317
101	0x3e39fb88	0.18162358
102	0xbdf76d42	-0.12081386
103	0xbe6ee28b	-0.23328607
104	0x3e3a7bf0	0.18211341
105	0x3d679207	0.056535747
106	0xbd860a41	-0.065449245
107	0xbd9e2031	-0.07720984
108	0x3e6529f7	0.2237929
109	0x3e3aa7f2	0.18228129
110	0x3dda8254	0.10669389
111	0xbe28676e	-0.16445705
112	0x3dfbedbd	0.12301204
113	0x3c8444b9	0.01614605
114	0xbd99822b	-0.07495531
115	0x3e242c5b	0.16032545
116	0x3cdfcced	0.027319396
117	0x3d29fbc4	0.041499868
118	0xbcf29ce6	-0.02961583
119	0x3bf3ffef	0.007446281
120	0x3decf913	0.11570945
121	0x3e0c74e3	0.13716464
122	0x3d44ccd7	0.048046913
123	0x3dde62c0	0.10858679
124	0x3e386b75	0.18009742
125	0xbcb93d09	-0.022612112
126	0xbe25ba60	-0.16184378
127	0xbdf32a1f	-0.11873268
128	0xbe233f42	-0.159421
129	0xbdf0dbb5	-0.11760656
130	0x3e235c95	0.15953286
131	0x3dde9032	0.10867347
132	0xbe2e80e6	-0.17041358
133	0x3e3cec4c	0.18449515
134	0xbe0e2ac3	-0.138835
135	0x3e5f69c9	0.21817698
136	0x3e073f5e	0.13207766
137	0x3d852ea6	0.06503038
138	0xbe779456	-0.2417768
139	0x3eca9ef9	0.39574412
140	0x3e027b11	0.12742259
141	0xbc99cee2	-0.018775407
142	0xbddc669b	-0.10761758
143	0xbd6e5942	-0.05819059
144	0xbd8eef3a	-0.069792226
145	0xbca93f72	-0.020660136
146	0x3e8a63fa	0.270294
147	0x3e689f51	0.22717024
148	0xbe87a8e6	-0.26496047
149	0x3db74aa0	0.089497805
150	0xbe518d14	-0.20463973
151	0x3dd3d22a	0.1034282
152	0x3e081aca	0.13291469
153	0x3e10c7fd	0.1413879
154	0xbd7f16eb	-0.062277716
155	0x3c5f7fb9	0.013641291
156	0xbe869785	-0.26287475
157	0x3e62309e	0.22088858
158	0xbc1aba1f	-0.009443789
159	0xbe21473c	-0.1574983
160	0xbe409e93	-0.18810491
161	0xbe06fa98	-0.13181531
162	0x3dd96f24	0.106169015
163	0xbdc2eb10	-0.09517491
164	0x3dd1a246	0.10236029
165	0x3e295671	0.16536881
166	0x3d93d2f3	0.0721797
167	0xbdf85a59	-0.121266074
168	0x3e2b9f73	0.16760044
169	0xbd496ca7	-0.049175885
170	0x3e0eb6f7	0.13936983
171	0xbe6f6712	-0.23379162
172	0x3da558fb	0.08073612
173	0x3d1b7b74	0.03795953
174	0xb85e6988	-5.302721e-05
175	0x3c677755	0.014127572
176	0x3df658a6	0.12028627
177	0x3df35365	0.118811406
178	0xbc5ea4fa	-0.013589138
179	0x3dd55a01	0.104175575
180	0xbdf05301	-0.11734582
181	0x3e1ee11a	0.15515557
182	0x3de4c35b	0.111700736
183	0x3dc3c79a	0.09559555
184	0xbd6b3553	-0.0574239
185	0x3d681026	0.056656025
186	0xbe92f4b3	-0.28702316
187	0x3b93cbd2	0.0045103813
188	0x3beb875d	0.0071877674
189	0x3da7beb1	0.081906684
190	0x3e22b37e	0.15888783
191	0x3c3c9af8	0.011511557
192	0xbda2ee15	-0.07955567
193	0x3e31d7e5	0.17367513
194	0xbc2c78f1	-0.010526882
195	0x3de3961c	0.111126155
196	0xbd9b811d	-0.07592986
197	0xbb79f84e	-0.0038142386
198	0xbe82a478	-0.25516105
199	0x3e53fba6	0.20701465
200	0xbe2f8e94	-0.17144233
201	0x3ca79a52	0.020459328
202	0xbdfd1aaf	-0.12358605
203	0x3e01f9c4	0.12692934
204	0xbe28bd69	-0.16478504
205	0x3db2baf9	0.087270685
206	0xbdb2e5a9	-0.087352104
207	0x3deb3f54	0.11486688
208	0xbde6a6a8	-0.11262256
209	0x3dc76d88	0.09737688
210	0x3e09f265	0.13471372
211	0xbd8c9ad7	-0.06865471
212	0xbe60d227	-0.21955167
213	0xbd85582f	-0.0651096
214	0x3dcd72aa	0.10031636
215	0x3da3767f	0.07981586
216	0x3e0b08b7	0.13577543
217	0x3cfebb86	0.031095278
218	0x3ccab74e	0.02474561
219	0x3e53f127	0.20697461
220	0x3c9e94d3	0.019358074
221	0x3e4ba99d	0.19888921
222	0xbdbe1f6f	-0.09283339
223	0x3e696a30	0.22794414
224	0x3d59bd61	0.05315912
225	0x3e2ce4b5	0.1688412
226	0xbd047b57	-0.03234419
227	0x3e2a6ba8	0.1664263
228	0x3de6be0c	0.11266717
229	0xbd8da6cb	-0.06916579
230	0x3ea02cdf	0.31284234
231	0x3dd576e5	0.10423068
232	0x3e193005	0.14959724
233	0x3e2fb780	0.17159843
234	0xbe32b15d	-0.17450471
235	0xbd5a39ad	-0.05327766
236	0xbe9d99df	-0.30781457
237	0x3da1d551	0.07902015
238	0x3dbab0a8	0.09115726
239	0x3de3e27f	0.11127185
240	0x3db53f44	0.088499576
241	0xbe7644f0	-0.24049735
242	0xbd821d4f	-0.063532464
243	0x3cb336a6	0.021876644
244	0x3d5fac4f	0.054607686
245	0x3e1dd115	0.1541179
246	0x3d9d2a40	0.07674074
247	0xbd262c52	-0.04056961
248	0xbdc0972a	-0.09403832
249	0xbe7c264c	-0.24623984
250	0x3df1acfc	0.11800572
251	0x3dfaf9da	0.12254687
252	0xbd6964b8	-0.05698082
253	0x3d9dea8e	0.077107534
254	0xbd825be7	-0.06365185
255	0xbd9c7a51	-0.076405175

forward_tcn.network.0.conv2.bias f4 [16]
0	0x3da57ac3	0.080800556
1	0xbdb1768d	-0.0866519
2	0x3dcd4aa0	0.10023999
3	0x3e02be43	0.12767892
4	0x3e0029b3	0.12515907
5	0xbd7b83e3	-0.061405074
6	0xbd805594	-0.06266323
7	0xbdc55727	-0.096357636
8	0xbdd0504c	-0.101715654
9	0x3d7054aa	0.058674492
10	0x3d9efd1c	0.077631205
11	0xbcd154ac	-0.02555307
12	0xbe71fed0	-0.2363236
13	0xbda4ebc3	-0.080527805
14	0xbc66009a	-0.014038229
15	0x3d8a8088	0.06762797

forward_tcn.network.0.net.weight f4 [16, 3, 1]
0	0x3ec875d6	0.39152402
1	0x3f1548cf	0.5831422
2	0x3e5fddee	0.21862003
3	0x3eb7737d	0.35830298
4	0xbf139fb8	-0.57665586
5	0x3e01536f	0.12629484
6	0x3f1c8e20	0.61154366
7	0xbf07b374	-0.530082
8	0xbd51cde2	-0.051221736
9	0x3f0aa595	0.5415891
10	0xbdbbac39	-0.09163708
11	0x3dc9c00b	0.098510824
12	0xbe60db46	-0.21958646
13	0xbe6b8e43	-0.23003487
14	0xbdff8595	-0.124766506
15	0x3ee4bd3d	0.44675627
16	0x3f10a10a	0.56495726
17	0xbdb0f19f	-0.086398356
18	0xbd879d41	-0.06621791
19	0xbe3d2fca	-0.18475261
20	0xbf1240a1	-0.57129866
21	0xbe0fa053	-0.14026003
22	0xbee4cd01	-0.44687656
23	0x3e34fdf1	0.17674996
24	0x3e2cbe42	0.16869453
25	0xbd11ec80	-0.035625935
26	0xbefade40	-0.48997688
27	0xbedbef5d	-0.42956057
28	0xbeced3c5	-0.40395942
29	0x3dd277cb	0.10276755
30	0xbe91cfc9	-0.2847884
31	0xbf166ef0	-0.5876303
32	0xbf2522c5	-0.6450618
33	0xbf28fe8d	-0.66013414
34	0x3d00911d	0.03138839
35	0x3edb4ec1	0.42833522
36	0x3ef78f24	0.48351395
37	0xbeb8fc63	-0.36130056
38	0x3ebf4b87	0.3736231
39	0x3ef1bacb	0.47212824
40	0xbcd0ebb3	-0.025503015
41	0x3ee04a01	0.4380646
42	0x3e896da1	0.26841453
43	0x3c0e771d	0.008695391
44	0x3e972d3b	0.29526696
45	0x3f143326	0.57890546
46	0x3df4e7f5	0.11958305
47	0x3eac15e3	0.33610448

forward_tcn.network.0.net.bias f4 [16]
0	0xbe74b29b	-0.23896258
1	0x3f0637af	0.52428716
2	0x3e5d92fd	0.21638103
3	0xbec8acf0	-0.3919444
4	0xbf17f00d	-0.59350663
5	0xbe8f1f75	-0.27953687
6	0x3cb49743	0.022044783
7	0xbeb03a40	-0.3441944
8	0xbe520526	-0.20509776
9	0x3e9f5670	0.31120634
10	0x3e34bee6	0.17650947
11	0xbf058e69	-0.52170426
12	0x3e13eddb	0.14446203
13	0x3eaf2a49	0.3421195
14	0xbe5eeff7	-0.21771227
15	0xbecb802a	-0.3974622

forward_tcn.network.1.conv1.weight f4 [32, 16, 2]
0	0x3c01b397	0.007916353
1	0x3a16767c	0.00057397014
2	0x3e489de0	0.19591475
3	0xbd8233ca	-0.06357534
4	0x3e1c929b	0.152903
5	0x3dc8f592	0.09812464
6	0x3e44fc8e	0.19236967
7	0xbdf00ebf	-0.117215626
8	0xbd19ba90	-0.037531435
9	0x3e08efb4	0.1337269
10	0x3ddeced8	0.10879296
11	0x3e518a40	0.20462894
12	0x3e3462ba	0.17615786
13	0x3e8359c7	0.25654432
14	0xbdec890c	-0.11549577
15	0x3d4e1c86	0.05032017
16	0xbdb22751	-0.08698905
17	0x3e88d3c2	0.26724058
18	0xbe49fa4b	-0.19724385
19	0xbe098e0e	-0.13433096
20	0x3d0a2065	0.0337223
21	0x3d939532	0.07206191
22	0xbe6936cf	-0.22774814
23	0xbd220b10	-0.03956133
24	0x3e239d3f	0.15977953
25	0xbd76d489	-0.060261283
26	0x3e4d84a9	0.20070137
27	0x3dbfb856	0.09361331
28	0xbcdeedb9	-0.027212964
29	0xbc67ff59	-0.014160001
30	0x3e204773	0.15652256
31	0x3d2be5eb	0.041967314
32	0x3e612a0a	0.21988693
33	0xbda7a1cf	-0.081851594
34	0x3e00b7e7	0.12570153
35	0x3cd6837a	0.02618574
36	0x3d836cf0	0.064172626
37	0x3d5bf59c	0.05370103
38	0x3cb3066c	0.021853648
39	0xbbcea242	-0.0063059637
40	0x3e007afb	0.12546913
41	0x3d9182a1	0.071049936
42	0x3e6bdfdb	0.23034613
43	0x3e803bb2	0.25045544
44	0x3e56f08f	0.20990203
45	0x3e2e5d6b	0.17027824
46	0x3dc40e5b	0.095730506
47	0xbe2e789b	-0.17038195
48	0x3cc17dd9	0.02361958
49	0x3b9956ba	0.004679528
50	0xbe88ec9f	-0.26743028
51	0xbdd412cd	-0.103551485
52	0x3d5850fe	0.052811615
53	0xbe29eefa	-0.16595069
54	0xbe0f89d1	-0.14017417
55	0xbdda44a9	-0.10657627
56	0xbbc776ff	-0.0060871835
57	0xbe60c2c1	-0.21949293
58	0xbdc9d82a	-0.09855683
59	0x3e0eed2b	0.1395766
60	0xbd12611e	-0.03573715
61	0x3d930b77	0.07179921
62	0xbde33e05	-0.11095814
63	0xbdaebdc4	-0.08532289
64	0x3d39916b	0.045304697
65	0xbb29959d	-0.002587653
66	0xbe41a07f	-0.1890888
67	0x3d03f347	0.03221443
68	0xbe25bf3a	-0.16186228
69	0xbd7b03da	-0.06128297
70	0xbcb1904d	-0.021675253
71	0x3daad685	0.083416976
72	0xbea37137	-0.31922314
73	0x3d938ea6	0.072049424
74	0xbe0a8bc0	-0.13529873
75	0xbdc01b61	-0.09380222
76	0x3dbcba7c	0.092152566
77	0xbe997aa4	-0.2997638
78	0xbe21a805	-0.1578675
79	0xbdc84662	-0.097790495
80	0xbe3f537a	-0.18684188
81	0xbe4b0bd8	-0.19828737
82	0x3d5781ce	0.052614026
83	0x3be6e8a7	0.0070467773
84	0x3d995ebe	0.07488774
85	0xbea38b0e	-0.31942028
86	0x3e33550d	0.17512913
87	0x3e3fceab	0.18731181
88	0xbe4208df	-0.18948697
89	0x3d92a08c	0.07159528
90	0x3d95a252	0.07306351
91	0x3e71a4d0	0.23598027
92	0xbe1b3b70	-0.15159392
93	0x3e80be86	0.25145358
94	0xbdec240f	-0.11530315
95	0x3e16bc04	0.1472016
96	0x3e246783	0.16055112
97	0xbe4d697f	-0.20059775
98	0xbe23a6f8	-0.15981662
99	0x3dcc9d4e	0.09990941
100	0xbde5803b	-0.11206099
101	0x3e2e1770	0.17001128
102	0x3dd00fe5	0.10159282
103	0xbcf75506	-0.03019191
104	0x3d04ef08	0.03245452
105	0x3e26420e	0.16236135
106	0xbe0c0342	-0.13673118
107	0xbe182b0d	-0.14860173
108	0xbe6027fe	-0.21890256
109	0xbd935cdc	-0.07195446
110	0x3e1423f0	0.14466834
111	0x3db4a31c	0.08820173
112	0xbe4d26d3	-0.20034342
113	0x3e212556	0.15736899
114	0xbe420f1f	-0.1895108
115	0xbdf15c90	-0.11785233
116	0xbe49d8bd	-0.19711585
117	0x3d96c1c5	0.07361177
118	0x3ca672b6	0.02031837
119	0xbe39e6c9	-0.18154444
120	0xbcf040f7	-0.029327853
121	0x3e4bbc73	0.19896106
122	0xbca1b840	-0.019741178
123	0xbe0ae936	-0.13565525
124	0x3e60f3a7	0.21967946
125	0x3e4b1d00	0.19835281
126	0x3e2c70bb	0.16839878
127	0x3e3e8b90	0.18607926
128	0xbe25ad98	-0.16179502
129	0xbd63c6e1	-0.055609588
130	0x3e40d40e	0.18830892
131	0x3defbd68	0.11706048
132	0x3e12ff33	0.14355163
133	0x3e2152d5	0.15754254
134	0x3de739f4	0.112903506
135	0x3e446dd6	0.19182524
136	0x3e519f51	0.2047093
137	0x3e1bfbe5	0.15232809
138	0x3b333046	0.0027342006
139	0x3de4b4c8	0.11167294
140	0xbdf4ef8a	-0.11959751
141	0x3e7da940	0.24771595
142	0x3e04fa98	0.12986219
143	0x3e24890d	0.16067906
144	0xbdc415ba	-0.095744565
145	0x3e17efa1	0.14837505
146	0x3e00891e	0.12552306
147	0x3db76746	0.08955245
148	0xbd9e8056	-0.07739322
149	0xbc6a9420	-0.014317542
150	0x3e2a7131	0.16644742
151	0x3dc00e79	0.093777604
152	0x3e5f7913	0.2182353
153	0x3e1acd02	0.15117267
154	0x3e49dd92	0.19713429
155	0xbe2535bf	-0.16133784
156	0xbde034f2	-0.109475985
157	0xbda1378c	-0.07871923
158	0x3dcc5be0	0.09978461
159	0xbe41b408	-0.18916333
160	0xbe00d96e	-0.12582943
161	0xbdeb7b83	-0.11498167
162	0x3e19758a	0.14986244
163	0x3e636b31	0.22208859
164	0xbe320f9c	-0.17388767
165	0xbd7ff984	-0.062493816
166	0xbb59de89	-0.0033244214
167	0xbd6edb81	-0.058314804
168	0x3d9bef4d	0.076140024
169	0x3b9ca4b9	0.0047803787
170	0xbddadff4	-0.10687247
171	0xbe5674ba	-0.20942965
172	0xbdbeddca	-0.09319647
173	0xbe005382	-0.12531856
174	0xbe169d4d	-0.14708443
175	0x3e9b3c3d	0.30319396
176	0x3d652c53	0.055950474
177	0xbe93ad0c	-0.28842962
178	0x3dfced8c	0.12349996
179	0x3e54a318	0.2076534
180	0x3e0ddfe2	0.13854936
181	0xbdd0f48f	-0.10202896
182	0x3d437769	0.0477213
183	0x3e918c0a	0.28427154
184	0xbdc0daa4	-0.094167024
185	0x3d9bac00	0.07601166
186	0x3cf08132	0.02935848
187	0x3e1cfb52	0.15330246
188	0xbd48e412	-0.04904563
189	0x3cd75536	0.026285749
190	0x3dee1c05	0.11626438
191	0xbe47fb86	-0.19529542
192	0xbdad7ea7	-0.08471423
193	0x3e861212	0.26185662
194	0xbc9aa8fc	-0.018879406
195	0x3cf433a0	0.029809773
196	0x3d88aefc	0.066740006
197	0xbda28699	-0.07935829
198	0xbd3bf858	-0.045891136
199	0xbcf65bdc	-0.030073099
200	0x3b5895b8	0.0033048224
201	0xbe6b2eb1	-0.2296703
202	0xbe317fad	-0.1733386
203	0x3d5a4d96	0.053296648
204	0x3e714d94	0.2356475
205	0xbd8217ad	-0.06352172
206	0xbe181055	-0.1484998
207	0xbd8d9b57	-0.06914394
208	0x3e3b645e	0.18300006
209	0x3e16e5ae	0.14736053
210	0x3cad9252	0.021187935
211	0xbea069f3	-0.31330833
212	0x3dce588c	0.10075483
213	0xbdae81c2	-0.08520843
214	0xbe13c67c	-0.14431185
215	0xbdc5625a	-0.096379
216	0x3d993796	0.07481305
217	0xbe4edaf3	-0.2020071
218	0x3da042cc	0.078252405
219	0x3d3fe46e	0.046848707
220	0xbe66866e	-0.22512218
221	0x3e073804	0.13204962
222	0x3d5b25bb	0.05350278
223	0xbcaec0ec	-0.021332227
224	0xbc35df42	-0.011100592
225	0xbd41c57a	-0.04730747
226	0x3e3d0707	0.18459712
227	0xbde4e8ba	-0.111772016
228	0xbd92be36	-0.07165186
229	0xbc79e49c	-0.015252259
230	0x3d9927db	0.07478305
231	0xbe1e7cec	-0.15477341
232	0xbc4d0ae7	-0.012514806
233	0xbe22ffad	-0.15917845
234	0xbc8a8929	-0.016911106
235	0xbce260e5	-0.027634094
236	0x3e093ad8	0.13401353
237	0x3e1189e5	0.14212759
238	0x3daf4644	0.08558324
239	0x3a9bac68	0.0011876943
240	0x3d1bbd77	0.038022485
241	0x3ea8eb09	0.32991818
242	0xbdcba596	-0.099436924
243	0xbdb3337e	-0.08750056
244	0xbddbbc81	-0.10729314
245	0x3dbf4a04	0.09340289
246	0xbd07fbf8	-0.03319928
247	0xbe7c674e	-0.24648783
248	0x3e14dacc	0.1453659
249	0xbe22e89b	-0.15909044
250	0x3d937a4a	0.07201059
251	0xbdef8303	-0.116949104
252	0x3df54678	0.119763315
253	0xbe30b41b	-0.17256205
254	0x3e505a45	0.20346935
255	0xbdd6275e	-0.104567274

forward_tcn.network.1.conv1.bias f4 [32]
0	0xbe2f9042	-0.17144874
1	0x3de379d8	0.11107224
2	0x3e5343a6	0.20631275
3	0xbdc736ce	-0.0972725
4	0xbdf07ffa	-0.117431596
5	0x3d6ae979	0.057351563
6	0xbdef9239	-0.11697812
7	0x3d19383d	0.03740715
8	0xbe105ee2	-0.14098695
9	0xbded0214	-0.11572662
10	0xbe1986c0	-0.1499281
11	0xbe051864	-0.12997586
12	0x3dc560b7	0.096375875
13	0x3e2c34ee	0.16817066
14	0xbe2e82b4	-0.17042047
15	0x3e3bc14e	0.18335459
16	0xbe0097b8	-0.12557876
17	0xbcac991b	-0.0210691
18	0x3e2457a8	0.16049063
19	0xbd8dd9ee	-0.069263324
20	0x3c8488bd	0.016178483
21	0x3e359897	0.1773399
22	0xbd6219ce	-0.05520039
23	0xbe4b0c9e	-0.19829032
24	0xbe4de357	-0.20106255
25	0xbe1e4bd2	-0.1545861
26	0x3d38b52a	0.045094647
27	0x3cc52bba	0.024068702
28	0x3b296d15	0.0025852371
29	0x3d110e5d	0.03541409
30	0x3df147fb	0.11781307
31	0x3da65a5f	0.08122706

forward_tcn.network.1.conv2.weight f4 [32, 32, 2]
0	0x3c8ab08b	0.016929885
1	0x3e43bac7	0.19114219
2	0xbdc22c88	-0.0948115
3	0xbc99af45	-0.018760333
4	0x3db14d11	0.086572774
5	0x3ccb6887	0.024830116
6	0xbc0ca62e	-0.008584542
7	0x3dac67a2	0.08418204
8	0xbd88f08c	-0.06686506
9	0x3bd9c7b2	0.00664612
10	0xbd350613	-0.044195246
11	0xbb73c76b	-0.003719772
12	0xbd4cb5a8	-0.04997793
13	0xbd8a675f	-0.06757998
14	0xbd3a4098	-0.045471758
15	0x3d2c3794	0.04204519
16	0x3b7a7a4c	0.0038219867
17	0x3cec5564	0.028849311
18	0xbe1e4611	-0.15456416
19	0x3cf8d345	0.030374179
20	0xbe931605	-0.28727737
21	0x3e499cd0	0.19688725
22	0xbd86661b	-0.06562444
23	0x3e052b98	0.13004911
24	0x3d030d5d	0.031995166
25	0xbc7d06ec	-0.015443545
26	0x3d9c280a	0.07624824
27	0x3b849475	0.004046018
28	0x3e232718	0.15932882
29	0xbca8f0f1	-0.020622702
30	0xbda81929	-0.08207924
31	0x3e01f7a5	0.12692125
32	0xbe0537cd	-0.13009568
33	0x3db19181	0.08670331
34	0xbdcb4ce7	-0.09926777
35	0x3e1adde7	0.15123712
36	0x3d6445a1	0.055730466
37	0x3d5cdbed	0.053920675
38	0x3ada3345	0.001664736
39	0x3c51e29a	0.012810374
40	0xbe25d4dc	-0.1619448
41	0x3d9f5505	0.07779888
42	0x3d9d70ec	0.07687554
43	0xbbb2a4f6	-0.005451794
44	0xbd21f540	-0.03954053
45	0xbbb86be8	-0.005628098
46	0x3e21fa52	0.15818146
47	0xbe2f7731	-0.17135312
48	0x3e2d903a	0.1694955
49	0x3d51b42a	0.05119721
50	0x3dfe060e	0.124034986
51	0xbd2e3d96	-0.0425392
52	0xbd69d2c2	-0.05708576
53	0x3e0502ae	0.12989303
54	0x3e05787a	0.1303424
55	0xbd67b69d	-0.056570638
56	0xbd854449	-0.06507165
57	0x3d6ea2f4	0.058260873
58	0x3d96f48b	0.073708616
59	0x3e037b23	0.12839942
60	0x3df83a29	0.12120468
61	0xbd87f2c2	-0.06638099
62	0xbd63bc86	-0.05559971
63	0x3e426e3d	0.18987365
64	0x3d400904	0.046883598
65	0x3d6008d4	0.05469592
66	0x3d3de44c	0.0463603
67	0xbe2eaa7b	-0.1705722
68	0xbdd2230e	-0.102605924
69	0xbd70e87b	-0.05881546
70	0x3d584c2c	0.05280702
71	0xbd4cd187	-0.05000451
72	0xbd90ba0e	-0.07066737
73	0x3daba48c	0.08380994
74	0x3cb7e858	0.022449657
75	0x3c99934b	0.018746993
76	0xbe2b98ee	-0.16757557
77	0xbb7ed0b4	-0.003888172
78	0x3e4ac621	0.19802143
79	0xbd1d7363	-0.03844012
80	0xbdebdfa0	-0.115172625
81	0x3e0283c9	0.12745585
82	0xbdaa2bc8	-0.08309132
83	0x3cbd6914	0.023121394
84	0xbd9adca9	-0.07561619
85	0x3da63f96	0.08117597
86	0x3d7c8529	0.06165043
87	0xbde561ed	-0.112003185
88	0xbe2f9398	-0.17146146
89	0x3da6932c	0.081335396
90	0x3e0f3cff	0.13988112
91	0x3d5be5c2	0.05368591
92	0xbc996f04	-0.018729694
93	0xbc464427	-0.01210121
94	0x3bb48134	0.0055085663
95	0x3ca2500d	0.019813562
96	0xbdcced44	-0.10006192
97	0x3ce1e22e	0.027573671
98	0xbd3e1ec5	-0.046416063
99	0x3d89a7d6	0.06721465
100	0xbb4bd5dd	-0.0031102814
101	0xbe0043c0	-0.12525845
102	0xbd978845	-0.07399038
103	0x3dcc8a41	0.09987307
104	0xbcbae1d4	-0.022812761
105	0xbd0b1c91	-0.03396279
106	0xbe0a37fb	-0.13497917
107	0xbcd4e2fd	-0.025987143
108	0x3d3e9bf1	0.046535436
109	0x3e18e8d4	0.14932567
110	0x3e158602	0.14601901
111	0x3e3a40ec	0.18188828
112	0x3e363c5a	0.1779646
113	0xbe446dc6	-0.191825
114	0x3c4783bb	0.012177403
115	0x3c45f2bc	0.012081798
116	0xbdc901a8	-0.09814769
117	0xbd82c4ac	-0.063851684
118	0xbc80dd4c	-0.015730523
119	0xbce3c681	-0.027804615
120	0x3d40f10c	0.04710488
121	0x3d031797	0.03200492
122	0xbd98768a	-0.074444845
123	0x3dee29a2	0.116290346
124	0xbe0566cd	-0.13027497
125	0x3da32688	0.07966334
126	0x3dec4a9e	0.115376696
127	0x3e528e26	0.20562038
128	0x3d79e555	0.061009724
129	0x3dab4777	0.0836324
130	0x3db78da5	0.089625634
131	0xbe105c22	-0.14097646
132	0x3d3b713b	0.045762282
133	0x3d2c3652	0.04204399
134	0x3d8da103	0.06915476
135	0x3d8a2a0d	0.06746302
136	0xbd8bae0b	-0.068203054
137	0x3dcc1c72	0.09966363
138	0x3cf332e4	0.029687352
139	0x3d94b62a	0.072613075
140	0xbdd3d41e	-0.103431925
141	0x3dddd82b	0.108322464
142	0xbdd8bf6b	-0.10583385
143	0xbd8c7c14	-0.068596035
144	0xbdd9891e	-0.10621856
145	0x3dbc0719	0.09181041
146	0xbaa4f062	-0.0012583847
147	0xbdf6699f	-0.120318644
148	0xbcdc82a1	-0.026917757
149	0xbd952d5b	-0.072840415
150	0x3d716a2f	0.058939155
151	0xbd207ca0	-0.03918135
152	0x3c22ddf0	0.009940609
153	0x3d946cc5	0.07247309
154	0x3d37b60c	0.044851348
155	0xbdbc5ab2	-0.09196986
156	0xbd895fe4	-0.06707743
157	0xbddc5997	-0.107592754
158	0x3c54ffdf	0.013000458
159	0xbe0559bb	-0.1302251
160	0xbe09db5f	-0.1346259
161	0x3cd4c60c	0.025973342
162	0x3d468dee	0.0484752
163	0x3d7256e2	0.05916489
164	0xbcd00d30	-0.025396913
165	0xbdc17b30	-0.09447324
166	0x3d7d4948	0.061837465
167	0x3db93a7f	0.0904436
168	0x3db9609a	0.090516284
169	0xbdab4f07	-0.08364683
170	0xbd84b8e1	-0.06480575
171	0xbe1c1c76	-0.15245232
172	0x3d1ea774	0.038733914
173	0x3c7156b0	0.014730141
174	0xbdd0b974	-0.101916224
175	0x3d41ef60	0.047347426
176	0x3d2fd38c	0.042926356
177	0x3ca8f450	0.02062431
178	0xbdf78ad0	-0.12087023
179	0xbd5daffb	-0.054122906
180	0xbc1889c9	-0.009310194
181	0x3bcc33da	0.006231767
182	0x3daae045	0.08343557
183	0xbced92ba	-0.029000629
184	0xbbe8c37a	-0.0071033807
185	0x3d8d5af6	0.06902115
186	0xbd767535	-0.06017037
187	0xbde8fca2	-0.11376311
188	0xbdfa9988	-0.12236315
189	0xbde50e17	-0.11184328
190	0xbdc158a3	-0.09440734
191	0xbd5a1a14	-0.053247526
192	0xbc4a8027	-0.012359655
193	0x3d60f945	0.054925222
194	0xbe1886b9	-0.14895143
195	0x3d20df24	0.039275303
196	0x3e2bf116	0.16791186
197	0x3e0efff3	0.13964824
198	0x3d83efe4	0.0644224
199	0x3debcc87	0.1151362
200	0x3d7b801b	0.061401468
201	0xbe317960	-0.17331457
202	0xbd5751d4	-0.05256827
203	0x3e1d28ac	0.15347546
204	0x3e2f7a3a	0.1713647
205	0xbde5acc9	-0.11214597
206	0x3d35fecc	0.044432446
207	0x3c8a5135	0.016884426
208	0xbd8233a8	-0.06357509
209	0xbe0248f3	-0.1272314
210	0xbca5722b	-0.020196041
211	0x3d93e6e5	0.07221774
212	0xbe18f21d	-0.14936109
213	0x3dd17513	0.10227408
214	0xbe3f496c	-0.18680352
215	0xbb8c30a4	-0.0042782594
216	0x3c22f229	0.009945431
217	0x3cfeedb9	0.031119214
218	0xbbdf8673	-0.0068214475
219	0x3d345846	0.044029497
220	0xbd89a8c7	-0.06721645
221	0x3de14f0b	0.110014044
222	0x3de8a7bf	0.1136012
223	0x3da0043a	0.07813306
224	0xbe3f43af	-0.18678163
225	0xbbf22353	-0.007389465
226	0x3d4f7d65	0.050656695
227	0x3e205507	0.15657435
228	0xbb80a88e	-0.0039263433
229	0x3c5ae0b0	0.013359234
230	0xbe0cfa30	-0.13767314
231	0xbd0bbf3e	-0.03411793
232	0xbd97601c	-0.07391378
233	0xbd63eba6	-0.055644654
234	0x3e35afe3	0.17742877
235	0xbd81ca5e	-0.063374266
236	0x3c9e3bbb	0.019315591
237	0xb9e844f9	-0.00044301877
238	0x3d277718	0.04088506
239	0x3e8aa619	0.27079847
240	0xbdaa04e5	-0.08301715
241	0x3df6eedf	0.1205728
242	0xbe891512	-0.26773888
243	0xbe267e08	-0.16259015
244	0x3d1a71bf	0.037706133
245	0x3de32862	0.11091687
246	0xbdcebb4a	-0.10094316
247	0x3cbfed96	0.02342872
248	0xbdda9349	-0.10672624
249	0x3de004f6	0.10938446
250	0xbc816fea	-0.015800435
251	0x3ddfa580	0.109202385
252	0xbe02e4bf	-0.12782572
253	0xbc3a6c4f	-0.011378362
254	0xbd917473	-0.07102289
255	0xbb2c319b	-0.0026274684

forward_tcn.network.1.conv2.bias f4 [32]
0	0x3de464a8	0.11152011
1	0x3da1112d	0.07864604
2	0xbdf60e1d	-0.12014411
3	0xbdaf8527	-0.08570319
4	0x3c0900b8	0.008361988
5	0xbdde9a73	-0.108693026
6	0x3e04c305	0.12965019
7	0xbd73b969	-0.059502993
8	0x3d59ef85	0.05320694
9	0xbe10d432	-0.14143446
10	0x3de074bc	0.10959765
11	0x3d515538	0.05110666
12	0xbd47ee6c	-0.04881136
13	0xbdd2b44d	-0.10288296
14	0x3d7ad31f	0.061236497
15	0x3e109fe7	0.14123498
16	0x3d2f1268	0.042742163
17	0x3c1f1bd9	0.009711229
18	0xbde734a8	-0.1128934
19	0x3de1d72d	0.1102737
20	0x3da4538d	0.080237485
21	0x3d455480	0.04817629
22	0x3de51f57	0.11187618
23	0x3e0c3728	0.13692915
24	0x3d84fd0c	0.06493577
25	0x3d82ab4b	0.06380328
26	0x3c2c5e8b	0.010520588
27	0xba7aba87	-0.0009564538
28	0xbc4a25c9	-0.01233811
29	0xbd82422b	-0.06360277
30	0xbdb006e0	-0.08595061
31	0x3b4358f8	0.0029807668

forward_tcn.network.1.net.weight f4 [32, 16, 1]
0	0x3e450c73	0.1924303
1	0xbd8ce5e8	-0.06879789
2	0xbda71d41	-0.081598766
3	0x3e79ce29	0.2439505
4	0xbe6f845c	-0.23390335
5	0x3e4c079f	0.19924782
6	0xbd3dc173	-0.046327066
7	0xbe838aba	-0.25691777
8	0x3e148fd6	0.14507994
9	0xbe6bb211	-0.23017146
10	0xbe4d536b	-0.20051353
11	0x3e697292	0.22797611
12	0xbe09c650	-0.13454556
13	0xbe121f6e	-0.14269802
14	0x3e54fedd	0.20800348
15	0xbe0edcb9	-0.13951387
16	0x3e087b49	0.1332828
17	0x3d9e5946	0.07731871
18	0xbdee8084	-0.11645606
19	0x3e41c95c	0.18924469
20	0x3dca3641	0.09873629
21	0x3d7eea71	0.0622353
22	0x3e296699	0.16543044
23	0xbd84d7eb	-0.064864956
24	0xbdaf9a23	-0.08574321
25	0xbc140148	-0.009033509
26	0x3c40a969	0.0117591405
27	0x3d0b148c	0.033955142
28	0x3d404d46	0.046948694
29	0xbe1d3a6e	-0.1535432
30	0x3db11b7c	0.0864782
31	0x3e5d231e	0.21595427
32	0x3d6971c6	0.05699327
33	0xbd9ed930	-0.07756269
34	0x3e4a5296	0.19758067
35	0xbe7e90a7	-0.24859868
36	0xbe6c8ede	-0.23101375
37	0x3e222697	0.15835033
38	0xbd59a70f	-0.053137835
39	0x3deb2dd0	0.114833474
40	0x3e03a617	0.12856327
41	0x3df7370b	0.120710455
42	0x3e3173c1	0.17329313
43	0x3da78990	0.08180535
44	0xbb179558	-0.0023129787
45	0x3d5e9b32	0.054347225
46	0x3db09980	0.08623028
47	0xbe56f2de	-0.20991084
48	0x3e8de541	0.2771397
49	0x3d528847	0.051399495
50	0x3d652f6b	0.055953424
51	0x3ac8641b	0.0015288623
52	0x3e66db70	0.22544646
53	0xbc802eee	-0.015647378
54	0xbe228fab	-0.15875117
55	0xbdaad7d1	-0.08341945
56	0x3d9d9dd4	0.07696119
57	0xbd8ff9ab	-0.07030042
58	0xbdea001a	-0.114258006
59	0xbd3bce38	-0.045850962
60	0xbde25bf8	-0.11052698
61	0x3d7460d0	0.05966264
62	0x3e015fd2	0.12634209
63	0x3da2c1c1	0.07947112
64	0xbe643e48	-0.22289383
65	0x3e1f170f	0.1553614
66	0x3e541f4f	0.20715068
67	0xbdf2c1ca	-0.118533686
68	0xbd9f0d15	-0.07766167
69	0xbd65f9fa	-0.0561466
70	0x3de26102	0.11053659
71	0xbc4abd23	-0.012374195
72	0x3d8ad16c	0.06778225
73	0xbe1c751c	-0.15279049
74	0x3ad6bba4	0.0016382826
75	0x3d01f887	0.031731155
76	0xbb8f5faf	-0.00437542
77	0xbe277492	-0.16353062
78	0xbe3414fb	-0.17586128
79	0x3cd4f106	0.025993835
80	0x3e455cab	0.19273631
81	0xbd20ec71	-0.039287988
82	0xbe737263	-0.23774104
83	0x3e817289	0.25282696
84	0x3e082f0c	0.13299197
85	0x3dc5edd0	0.096645
86	0x3c4944c9	0.012284466
87	0x3e519997	0.20468746
88	0xbddcfd71	-0.107905276
89	0xba773bcc	-0.00094312127
90	0x3e6c5b89	0.23081793
91	0xbe564829	-0.20925964
92	0x3c82e0aa	0.015976269
93	0xbe8bdfcb	-0.27319178
94	0x3e777426	0.24165401
95	0xbe7df5cd	-0.24800797
96	0x3d8f61ed	0.070011
97	0xbdfc8bfc	-0.123313874
98	0xbe6efc03	-0.23338322
99	0x3cab30b5	0.020897249
100	0xbe8bcb58	-0.27303576
101	0x3e2e4d2f	0.1702163
102	0x3d0b2033	0.033966254
103	0xbe70276d	-0.2345254
104	0x3d35ce8d	0.044386435
105	0xbd9cf286	-0.07663445
106	0xbe3ae056	-0.1824964
107	0xbc8a1791	-0.01685694
108	0xbe4c171b	-0.19930689
109	0x3e33540e	0.17512533
110	0xbd78ccf4	-0.060742334
111	0x3d9332eb	0.07187446
112	0x3cc6ec90	0.024282724
113	0xbc43155a	-0.011906946
114	0xbdfe3728	-0.12412864
115	0x3d2c8121	0.042115334
116	0x3d4080c7	0.04699781
117	0x3e3406fa	0.17580786
118	0xbc699878	-0.014257543
119	0x3e0079ba	0.12546435
120	0xbe4c616f	-0.19959043
121	0x3c1efc26	0.009703672
122	0x3e0c085e	0.13675067
123	0xbdebd7ee	-0.11515795
124	0x3e848b2f	0.2588744
125	0xbe0d976c	-0.13827294
126	0x3daabdd6	0.083369896
127	0xbc0d0d97	-0.008609197
128	0xbd524e0b	-0.05134396
129	0xbaa09ea6	-0.0012254312
130	0x3e350962	0.1767936
131	0xbe025cb9	-0.12730683
132	0x3ce3e7df	0.027820526
133	0x3d320e72	0.043470807
134	0x3e1de6e6	0.15420112
135	0xbd32dd41	-0.043668035
136	0x3e286ea0	0.1644845
137	0xbe5b304e	-0.21405146
138	0xbe78acec	-0.24284714
139	0xbdcd5309	-0.10025603
140	0xbd7e9f01	-0.062163357
141	0xbe577956	-0.2104238
142	0xbe4429a1	-0.19156505
143	0xbc9cef34	-0.01915703
144	0x3dfe1b04	0.124074966
145	0xbe4f4a58	-0.20243204
146	0x3e8017a4	0.25018036
147	0xbe48eed0	-0.1962235
148	0xbd9ded0c	-0.07711229
149	0x3da0f3c8	0.078589976
150	0xbe577e04	-0.21044165
151	0x3e1a01ed	0.15039797
152	0xbe175674	-0.14779073
153	0xbc87be40	-0.01657021
154	0x3e1fb246	0.1559535
155	0xbe13c601	-0.14431001
156	0x3dd0d082	0.1019602
157	0x3d346d86	0.044049762
158	0x3e260742	0.16213706
159	0x3c17762b	0.009244482
160	0x3d7d4972	0.06183762
161	0x3e60f86e	0.21969768
162	0x3e46c973	0.19412784
163	0xbe4c551d	-0.19954343
164	0x3d2993bd	0.04140066
165	0xbc5b92fb	-0.013401742
166	0x3e6bdaf9	0.2303275
167	0x3e590f06	0.21197137
168	0xbd8e84c7	-0.06958919
169	0xbde47480	-0.11155033
170	0xbe5bf847	-0.21481429
171	0x3e278880	0.16360664
172	0x3e168549	0.14699282
173	0x3cf20b1c	0.029546313
174	0xbe73d37e	-0.23811147
175	0x3dd8e2e7	0.10590153
176	0xbe5f7352	-0.21821335
177	0x3cdd615f	0.02702397
178	0x3da9137d	0.0825567
179	0x3e8868bf	0.26642415
180	0x3e6658ba	0.22494784
181	0x3d2683b4	0.040652946
182	0x3e2c51b6	0.16828045
183	0x3dd79bc6	0.10527758
184	0xbc541538	-0.012944512
185	0xbe3eea67	-0.18644105
186	0xbd6d993b	-0.05800746
187	0xbde45401	-0.11148835
188	0xbdd79749	-0.10526902
189	0x3d23a468	0.039951712
190	0x3c8cfddc	0.017210893
191	0x3e3d9c12	0.18516567
192	0xbe32d3c1	-0.1746359
193	0xbe47a541	-0.19496633
194	0xbe5d2455	-0.21595891
195	0x3e2c5fad	0.16833372
196	0x3e2c5859	0.16830577
197	0x3e6354c5	0.22200306
198	0x3e83f778	0.2577474
199	0x3e23de02	0.16002658
200	0x3e8c2f7b	0.27379975
201	0xbe04fad1	-0.12986304
202	0x3c410b68	0.011782505
203	0xbe6ae878	-0.22940242
204	0x3d008145	0.03137328
205	0x3e584dc3	0.21123414
206	0xbc53a854	-0.0129185505
207	0xbd61ad90	-0.055097163
208	0xbe16c43c	-0.14723295
209	0x3e360538	0.17775428
210	0xbd430691	-0.047613684
211	0x3e33a33b	0.17542736
212	0x3d556ef3	0.052107763
213	0x3db50eb0	0.08840692
214	0x3d957588	0.07297808
215	0xbd71448f	-0.058903273
216	0xbe6763ad	-0.22596617
217	0x3d45fe19	0.04833803
218	0xbe5a4d1f	-0.21318482
219	0x3e1d5a22	0.15366414
220	0x3e1141f5	0.14185317
221	0x3e3e5ffb	0.18591301
222	0x3e70609e	0.23474357
223	0x3e72d562	0.23714212
224	0x3e3762c3	0.17908768
225	0xbe3b2a65	-0.18277891
226	0xbe291877	-0.16513239
227	0xbe1ec7a3	-0.15505843
228	0xbd2e3555	-0.04253133
229	0xbdad82e4	-0.08472231
230	0xbe891e30	-0.26780844
231	0xbd0c510c	-0.03425698
232	0x3dd61bd8	0.104545295
233	0xbd4cbbf9	-0.049983952
234	0x3dbedbf7	0.09319299
235	0x3e781997	0.24228512
236	0xbe5e9383	-0.21735959
237	0x3e6fa780	0.2340374
238	0x3e001ac3	0.12510209
239	0x3e784ead	0.24248762
240	0x3dae103c	0.0849919
241	0xbdbf0cca	-0.09328611
242	0xbe22acd1	-0.15886237
243	0x3e1c4586	0.15260896
244	0xbc82578c	-0.015910886
245	0xbe58ec7e	-0.21183965
246	0xbe007cae	-0.12547562
247	0xbd8dd3c1	-0.069251545
248	0xbdcc0468	-0.09961778
249	0xbcb15386	-0.021646272
250	0x3e070f13	0.13189344
251	0x3e57bcb3	0.21068077
252	0x3e2d273e	0.16909501
253	0x3e2f98bd	0.17148109
254	0x3e68a719	0.22719993
255	0x3e6c8758	0.23098505

forward_tcn.network.1.net.bias f4 [32]
0	0x3e839b95	0.25704637
1	0xbdc37b44	-0.095449954
2	0x3e379b76	0.17930397
3	0xbe3c5054	-0.18390018
4	0x3c3a7fac	0.011382978
5	0x3e20d29a	0.15705338
6	0xbd54d7dc	-0.051963672
7	0xbe2bf100	-0.16791153
8	0xbe5f0f24	-0.2178312
9	0xbe2accbb	-0.16679661
10	0xbe6a9f2e	-0.22912285
11	0x3d882b71	0.06648911
12	0x3e2a05c7	0.16603766
13	0xbc1699c1	-0.009191931
14	0x3e1f1dba	0.15538684
15	0x3e258083	0.16162305
16	0xbdce7fb2	-0.1008295
17	0xbe03dc24	-0.12876946
18	0xbe36675b	-0.17812864
19	0xbd95094a	-0.072771624
20	0x3c963bed	0.018339122
21	0xbe711aa5	-0.2354532
22	0x3e24d5a7	0.16097127
23	0xbe1be840	-0.15225315
24	0xbd9ccc70	-0.07656181
25	0x3d0f818e	0.035035662
26	0x3e59471b	0.21218531
27	0xbc67c8e7	-0.01414702
28	0x3dc74b5a	0.09731169
29	0xbdf865ca	-0.1212879
30	0x3e0b14f7	0.13582216
31	0x3e449427	0.1919714

forward_tcn.network.2.conv1.weight f4 [64, 32, 2]
0	0x3c229a23	0.009924444
1	0xbd39a8b9	-0.045326922
2	0xbd928565	-0.07154349
3	0xbd8cbedc	-0.06872341
4	0xbbd6430a	-0.0065387534
5	0xbddd85cb	-0.108165346
6	0xbde6a28a	-0.112614706
7	0xbe34825f	-0.17627858
8	0x3d295145	0.04133727
9	0x3d30e343	0.043185484
10	0xbd8aad2f	-0.067713134
11	0x3e2ea232	0.1705406
12	0xbc548f49	-0.012973615
13	0xbd80196b	-0.06254848
14	0x3db9d84f	0.09074461
15	0xbd94bb2c	-0.07262263
16	0x3d1bc811	0.038032595
17	0xbde4f0a2	-0.111787096
18	0xbd1660f2	-0.036713548
19	0xbce94b42	-0.028478269
20	0x3cc435ec	0.023951493
21	0xbdebb94d	-0.11509953
22	0xbdb0eec1	-0.08639289
23	0x3d2e9a80	0.04262781
24	0xbdaf81f0	-0.085697055
25	0x3dad7001	0.08468629
26	0xbdd3f5fc	-0.10349652
27	0x3ca7bbb6	0.02047525
28	0x3dbf11aa	0.09329541
29	0xbdeab4aa	-0.1146024
30	0xbda7b5a8	-0.08188945
31	0x3cf02d60	0.029318511
32	0x3d9e49ae	0.07728897
33	0x3de1f0e7	0.110322766
34	0x3ceb1a72	0.028699134
35	0x3de1b974	0.110217005
36	0xbbc9df27	-0.006160635
37	0x3d3d9e42	0.046293505
38	0x3d1524f6	0.0364122
39	0x3dfa3b31	0.12218321
40	0x3df152fd	0.11783407
41	0xbd9b98cc	-0.07597503
42	0xbd1fc2f4	-0.03900428
43	0x3d12212e	0.035676174
44	0x3d8db936	0.06920092
45	0xbbfaac79	-0.007649955
46	0x3e1599b2	0.14609411
47	0x3da37519	0.07981319
48	0x3db16d36	0.086634085
49	0xbe1d239e	-0.15345618
50	0xbd3f9629	-0.046774063
51	0x3e08740b	0.13325517
52	0x3e18bed2	0.14916542
53	0xbc738021	-0.014862091
54	0xbd311b73	-0.04323907
55	0xbd178b0f	-0.03699785
56	0xbbed32ab	-0.007238706
57	0xbdd001ef	-0.10156619
58	0x3d6611c9	0.056169305
59	0xbe1b39e7	-0.15158807
60	0x38bdfbd9	9.0591326e-05
61	0xbdccc8da	-0.09999247
62	0x3de360ce	0.111024484
63	0xbd81d378	-0.063391626
64	0xbe15378d	-0.14571972
65	0x3e4960c0	0.19665813
66	0xbde02802	-0.10945131
67	0xbded72a2	-0.1159413
68	0x3dd258cd	0.10270844
69	0x3dcfdf97	0.10150068
70	0xbe53195f	-0.20615147
71	0xbcf4cabe	-0.029881831
72	0x3cefa7e7	0.029254867
73	0xbde683c4	-0.11255601
74	0xbd45c45a	-0.04828296
75	0xbdfff1dd	-0.12497304
76	0x3db2a146	0.08722167
77	0x3da8d30b	0.08243378
78	0x3cf22178	0.029556975
79	0xbd1a0944	-0.037606493
80	0x3b3ffd52	0.0029295278
81	0xbdc67fb5	-0.09692327
82	0xbde0934d	-0.109655954
83	0x3ddc9af2	0.10771741
84	0xbe416892	-0.18887547
85	0x3c2931e4	0.010326836
86	0xbd1ee42e	-0.038791828
87	0xbc8cda63	-0.017193979
88	0x3e0d95f9	0.13826741
89	0xbe369401	-0.17829897
90	0x3dba63af	0.091010444
91	0xbc8e5d08	-0.017378345
92	0xbda5b81f	-0.08091759
93	0x3daecce3	0.08535173
94	0xbdcf2661	-0.10114742
95	0x3dffc00a	0.124878004
96	0x3d2a59fd	0.041589726
97	0x3db966e7	0.0905283
98	0xbe2da77c	-0.16958421
99	0xbd0aa295	-0.033846457
100	0xbd21994f	-0.039452847
101	0xbe04f5d3	-0.129844
102	0x3de81761	0.11332584
103	0x3d840f1f	0.064481966
104	0x3dfad9fd	0.12248609
105	0x3db8c191	0.09021295
106	0xbdd1ce35	-0.10244409
107	0xbe1976c5	-0.14986713
108	0xbda66a42	-0.08125736
109	0x3d641ef5	0.055693585
110	0x3c0451ae	0.008076115
111	0xbc181209	-0.009281644
112	0x3dfb9f11	0.12286199
113	0x3d34d77a	0.044150807
114	0xba8e4a98	-0.0010855971
115	0x3e1277c0	0.14303493
116	0xbd41d523	-0.047322404
117	0xbd3c7c75	-0.04601713
118	0xbd9e6411	-0.0773393
119	0x3d7c9c36	0.06167241
120	0x3dd67e7f	0.10473346
121	0xbce11847	-0.027477397
122	0x3cf363e4	0.029710717
123	0xbdf40cdf	-0.119165175
124	0xbd9a50bf	-0.07534932
125	0x3d882361	0.06647373
126	0xbc67bfbe	-0.014144836
127	0x3db77fc3	0.089599155
128	0x3e275da6	0.16344318
129	0x3ac41c7e	0.0014962105
130	0xbe05fc09	-0.13084425
131	0xbd9e4ebb	-0.077298604
132	0x3d97983a	0.07402082
133	0x3e0c9d6c	0.13731927
134	0x3cfe567a	0.031047095
135	0x3cf6789b	0.030086806
136	0xbdb01905	-0.08598522
137	0x3d3a77bc	0.045524344
138	0x3d7f33d9	0.062305305
139	0xbd92d863	-0.07170179
140	0x3dd8a7f1	0.10578907
141	0x3e3834bb	0.17988865
142	0xbe2f4aeb	-0.17118423
143	0x3d47d61b	0.04878817
144	0xba09140f	-0.0005229124
145	0x3d4c02fa	0.049807526
146	0xbd790f34	-0.060805514
147	0xbd19eee0	-0.037581325
148	0x3d344b1d	0.044016946
149	0x3d36386d	0.044487406
150	0x3e280694	0.1640876
151	0xbde1c629	-0.11024124
152	0xbdacb192	-0.08432306
153	0xbe05327e	-0.13007542
154	0xbdd0f984	-0.10203841
155	0xbda1165e	-0.07865594
156	0x3dea246f	0.114327304
157	0x3ca9955b	0.020701101
158	0xbd04cf99	-0.032424543
159	0x3d95c45e	0.07312845
160	0x3bad05b7	0.0052802223
161	0xbd105bfa	-0.035243966
162	0xbd8995ee	-0.0671805
163	0xbccf1681	-0.025279285
164	0x3db82785	0.08991913
165	0xbdfcf51b	-0.12351438
166	0x3ddae2b2	0.1068777
167	0xbdc22792	-0.09480204
168	0xbcbe1b81	-0.023206474
169	0x3debbaec	0.11510262
170	0xbc7c0c13	-0.015383738
171	0xbde84c7b	-0.113427125
172	0xbd615f86	-0.05502274
173	0x3d92f8c4	0.071763545
174	0x3d8569ef	0.06514346
175	0x3db186c3	0.08668282
176	0x3e0c147f	0.13679694
177	0x3d4d7d6f	0.05016845
178	0x3dc38895	0.09547535
179	0xbbb7ef6a	-0.005613257
180	0x3ddc74cb	0.10764464
181	0xbdc9883b	-0.09840437
182	0xbe17a851	-0.14810301
183	0x3db88ea5	0.09011582
184	0x3cacd911	0.0210996
185	0x3d64c461	0.055851344
186	0x3c0bf84c	0.008543085
187	0xbe353251	-0.17694975
188	0x3d2179ec	0.039422914
189	0x3e0ae688	0.13564503
190	0xbcc7f76e	-0.024409976
191	0x3d9da0f1	0.07696713
192	0x3c0d3a60	0.008619875
193	0x3d352402	0.044223793
194	0xbbaf0c07	-0.00534201
195	0x3e035ca8	0.12828314
196	0xbc966d43	-0.018362647
197	0x3cb01400	0.021493912
198	0x3e1026ab	0.1407725
199	0xbd5a1472	-0.053242154
200	0xbc7961ba	-0.015221054
201	0xbdf33607	-0.11875539
202	0xbd23f9bf	-0.0400331
203	0x3cea40c2	0.028595332
204	0x3cce6d0c	0.025198482
205	0x3d7ec105	0.062195797
206	0xbcc63a2a	-0.024197657
207	0x3d91a134	0.07110825
208	0xbdcbdeab	-0.0995458
209	0x3c094d05	0.008380179
210	0x3c288439	0.010285431
211	0xbdc9d0c0	-0.09854269
212	0xbd5478ab	-0.05187289
213	0x3dc9a412	0.09845747
214	0x3d592da0	0.053022027
215	0xbd7588ed	-0.059945036
216	0x3e039651	0.1285031
217	0xbc5b780b	-0.01339532
218	0x3cb76f8c	0.022392057
219	0xbc95a0c4	-0.018265136
220	0xbc690a7b	-0.01422369
221	0x3d67ddf4	0.056608155
222	0x3db56f81	0.08859158
223	0x3dbab3f9	0.09116358
224	0x3dc9c87a	0.09852691
225	0xbddfa512	-0.109201565
226	0xbe5db46c	-0.21650857
227	0x3da924c7	0.08258968
228	0xbcc40cce	-0.023931887
229	0xbd86940f	-0.06571209
230	0xbd260ab6	-0.04053756
231	0x3d7f6aea	0.06235782
232	0xbd21a40a	-0.03946308
233	0xbd636f1c	-0.055525884
234	0xbd29bb62	-0.041438468
235	0x3bd085b0	0.006363593
236	0xbe156201	-0.14588167
237	0x3d0a39b3	0.033746433
238	0xbd620434	-0.05517979
239	0x3c4b1fe9	0.012397745
240	0x3df79242	0.12088443
241	0x3e0cb55c	0.13741058
242	0x3d18b98d	0.03728633
243	0x3dcc948b	0.0998927
244	0x3d825d6c	0.06365475
245	0x3de63043	0.11239674
246	0xbdf3e5b9	-0.119090505
247	0x3d470e68	0.048597723
248	0x3dfd5e6a	0.12371524
249	0x3cbb92d4	0.022897162
250	0xbdea93e8	-0.11453992
251	0xbc7d7336	-0.015469363
252	0x3e18f792	0.1493819
253	0x3d8d3ae9	0.06896002
254	0xbe0f5b66	-0.1399971
255	0x3c457f1a	0.012054229

forward_tcn.network.2.conv1.bias f4 [64]
0	0x3db9452f	0.09046399
1	0x3c70d1a0	0.014698416
2	0xbd29a93d	-0.041421164
3	0xbcc6d429	-0.024271088
4	0xbc828f79	-0.015937554
5	0x3d4dc2b6	0.05023452
6	0x3d66ed66	0.056378745
7	0xbb474f83	-0.0030412383
8	0x3dbd3de6	0.09240322
9	0xbddc38aa	-0.10752995
10	0x3c2d1bb5	0.010565688
11	0xbd8053e8	-0.06266004
12	0x3d453651	0.048147503
13	0x3db91f5b	0.09039184
14	0xbc028511	-0.007966296
15	0xbda98a3e	-0.08278321
16	0xbdac791d	-0.08421538
17	0xbdb534d3	-0.08847966
18	0x3da15156	0.07876842
19	0xbcb57b87	-0.022153629
20	0x3e0b85ea	0.13625303
21	0xbdf402a6	-0.11914568
22	0x3de6be85	0.112668075
23	0xbd9c98a8	-0.07646304
24	0x3d76295f	0.06009805
25	0x3db30c49	0.087425776
26	0x3dbc9908	0.09208876
27	0xbcaf5f47	-0.021407736
28	0x3e2a93b6	0.1665791
29	0xbdb17a2b	-0.0866588
30	0x3dd4da2d	0.10393176
31	0x3dad1e32	0.08453025
32	0xbcd5eb6c	-0.026113234
33	0xbc3601d1	-0.0111088315
34	0xbda1590f	-0.07878315
35	0x3e1731c6	0.14765081
36	0xbe1087ab	-0.14114253
37	0x3d5135dd	0.05107676
38	0x3d878b0f	0.0661832
39	0xbd936df5	-0.07198707
40	0x3d70c8e7	0.058785345
41	0xbdcdb41c	-0.10044119
42	0xbd264b73	-0.040599298
43	0x3dbdb1eb	0.09262451
44	0xbe1b1a3e	-0.1514673
45	0x3d49e110	0.049286902
46	0x3bc0f6c7	0.005888793
47	0x3d5dfd94	0.05419691
48	0x3dce7aa2	0.10081984
49	0xbdadae3a	-0.08480497
50	0x3e11a0da	0.14221516
51	0x3de84b60	0.11342502
52	0xbda6ad20	-0.0813849
53	0xbca0ad5b	-0.019613912
54	0xbbfc50ec	-0.0077000763
55	0x3e0cae0f	0.13738273
56	0x3dee5eee	0.116392
57	0xbdf6eaee	-0.12056528
58	0x3c373d56	0.011184057
59	0x3daed7eb	0.08537277
60	0xbcfa7785	-0.03057457
61	0x3e0dec7e	0.13859746
62	0x3cea6b09	0.028615491
63	0xbd54f546	-0.051991723

forward_tcn.network.2.conv2.weight f4 [64, 64, 2]
0	0xbd263023	-0.04057325
1	0x3cf3103c	0.029670827
2	0x3dced1fe	0.100986466
3	0xbbb7cb5c	-0.005608959
4	0x3d932d19	0.07186336
5	0xbc0e3bda	-0.008681262
6	0xbc922291	-0.017838748
7	0xbe13dd77	-0.14439951
8	0x3ce68208	0.028138176
9	0x3cafc480	0.021456003
10	0x3c5f302a	0.013622323
11	0xbd7ce02b	-0.06173722
12	0x3da79e89	0.08184535
13	0xbd36045c	-0.04443775
14	0x3dc746f5	0.09730331
15	0xbd0d48e4	-0.034493342
16	0xbb8e0cd9	-0.0043350277
17	0xbd053aee	-0.032526903
18	0xbdd7ae58	-0.105313
19	0xbd1c8d59	-0.038220737
20	0xbd5d5cc5	-0.05404355
21	0x3bb72bc3	0.0055899336
22	0xbd342b8b	-0.04398684
23	0xbc688c0d	-0.014193547
24	0x3d0724e6	0.032994173
25	0x3da78003	0.08178713
26	0xbe200cd5	-0.15629895
27	0x3c9d8150	0.0192267
28	0xbdd3a935	-0.10335008
29	0xbde5e387	-0.11225038
30	0x3d419648	0.04726246
31	0x3d8d020a	0.068851545
32	0x3a1d2e89	0.0005996009
33	0x3e2120b3	0.1573513
34	0x3d4b340a	0.049610175
35	0x3d36f430	0.04466647
36	0x3cdbce71	0.026831837
37	0xbcae0f14	-0.021247424
38	0xbd50f577	-0.051015344
39	0xbe4995f2	-0.19686106
40	0xbdc3da2c	-0.09563097
41	0x3aa0384f	0.0012223813
42	0x3c490277	0.012268654
43	0xbc2e1991	-0.010626213
44	0x3e06e8c6	0.13174734
45	0x3ce30231	0.027711006
46	0x3d4939e8	0.04912749
47	0xbde3d5d3	-0.11124768
48	0xbd7624e2	-0.060093768
49	0x3d9f082a	0.07765229
50	0xbd096028	-0.033538967
51	0xbd98d3d1	-0.07462276
52	0xbce712c5	-0.028207192
53	0x3e1d5fad	0.15368529
54	0xbe31716a	-0.1732842
55	0x3deaf9b3	0.114734076
56	0xbd9cf8c1	-0.076646335
57	0x37708370	1.4335717e-05
58	0xbcc51beb	-0.024061164
59	0xbd1b04cc	-0.03784637
60	0x3cb8d4c3	0.02256239
61	0x3e14c612	0.14528683
62	0x3dc04b4a	0.0938936
63	0x3d140540	0.03613782
64	0x3bab2daa	0.0052239494
65	0x3d58dab7	0.052942958
66	0x3c866d64	0.016409583
67	0x3d1d1ccf	0.038357552
68	0x3ba97789	0.0051717204
69	0xbc2d7174	-0.010586131
70	0x3d833417	0.0640642
71	0x3d41453e	0.047185175
72	0x3bef1e4f	0.0072973142
73	0xbde1f313	-0.11032691
74	0xbd856196	-0.06512754
75	0xbe033171	-0.12811829
76	0x3d3e3c88	0.046444446
77	0xbe131f8b	-0.14367501
78	0xbe21d6e3	-0.15804629
79	0xbe8b0990	-0.27155733
80	0x3da2df9a	0.07952805
81	0xbe82f231	-0.25575402
82	0xbd163781	-0.036674026
83	0x3e1bab6d	0.15202112
84	0xbbfd15a1	-0.0077235256
85	0x3dc44193	0.0958282
86	0x3cc23184	0.023705252
87	0xbd06f4ed	-0.032948423
88	0x3dfd8fde	0.12380956
89	0x3d996234	0.07489434
90	0xbd0e06c3	-0.034674417
91	0x3b82776b	0.003981521
92	0x3d97673f	0.073927395
93	0x3db3b3e6	0.08774547
94	0xbc092adc	-0.008372035
95	0x3dcdf10b	0.10055741
96	0x3daea65c	0.08527824
97	0xbdbbfa72	-0.09178628
98	0x3cf71221	0.030160012
99	0x3dd70d7e	0.1050062
100	0xbd72d6c4	-0.059286848
101	0x3d6fb3ae	0.058520965
102	0x3d2201f1	0.039552633
103	0xbe0e0897	-0.13870464
104	0xbe044dd0	-0.12920308
105	0xbcffc92f	-0.031223862
106	0x3cffda08	0.031231895
107	0xbe6ca993	-0.23111562
108	0x3e178d96	0.14800104
109	0x3dce3651	0.10068954
110	0x3cf1d7d6	0.029521864
111	0x3dab7c46	0.08373313
112	0x3d03ff90	0.032226145
113	0x3e23259b	0.15932314
114	0xbd2efbb6	-0.04272052
115	0x3d990e01	0.07473374
116	0x3cb37673	0.021907067
117	0x3ba6743f	0.0050797756
118	0x3da056d2	0.0782906
119	0xbd2c707d	-0.042099465
120	0x3dce4b49	0.10072953
121	0x3e62b994	0.22141105
122	0xbd89072a	-0.066908196
123	0xbdd4e14c	-0.103945345
124	0xbd02fa09	-0.031976733
125	0x3dfb5fc4	0.12274125
126	0x3d1011d9	0.03517327
127	0x3d6edc09	0.05831531
128	0xbc865ab4	-0.016400672
129	0x3d8e0c40	0.0693593
130	0xbd10d02f	-0.03535479
131	0x3c42d2d5	0.011891087
132	0x3d487fcd	0.048950005
133	0x3cb99d6b	0.02265807
134	0x3dde71e3	0.10861566
135	0x3cfbd834	0.030742742
136	0x3e0b479a	0.13601533
137	0x3b5e2b9e	0.003390051
138	0x3c318172	0.010834085
139	0x3d5837a5	0.05278744
140	0xbd4d12ce	-0.05006676
141	0xbd816b5b	-0.063193046
142	0xbdaf0b5c	-0.085470885
143	0x3cb6034b	0.022218367
144	0x3d8071ae	0.06271683
145	0xbd7c428a	-0.061586894
146	0xbd286b9a	-0.04111824
147	0xbd27a04f	-0.040924367
148	0xbe478dd3	-0.19487695
149	0x3cea5aa4	0.028607674
150	0x3d009dc1	0.031400446
151	0xbcbf42df	-0.023347316
152	0x3e4ad36c	0.19807214
153	0xbda0ad89	-0.07845599
154	0x3dfd04d6	0.12354438
155	0x3cd213a4	0.025644131
156	0x3d24b288	0.040209323
157	0xbd970897	-0.07374685
158	0x3e11a3a0	0.14222574
159	0xbc77152e	-0.015080733
160	0x3d59cfca	0.05317668
161	0xbcd0ed80	-0.025503874
162	0xbde5d802	-0.11222841
163	0x3d333297	0.043749418
164	0x3cdd564e	0.027018692
165	0xbd91c5e8	-0.07117826
166	0x3d46304b	0.0483859
167	0xbd3a6eda	-0.045515873
168	0x3da1172a	0.07865746
169	0xbd85f391	-0.06540597
170	0x3dc32367	0.09528237
171	0xbcb4f7be	-0.022090789
172	0x3daf75ea	0.08567412
173	0xbd8966f4	-0.0670909
174	0xbd4f5a86	-0.05062344
175	0x3d5bf63e	0.05370163
176	0x3caf3452	0.021387253
177	0xbd8d2fdb	-0.06893893
178	0x3cb4d570	0.022074431
179	0x3bade69f	0.005307033
180	0xbc972b4a	-0.018453259
181	0xbe02e5b1	-0.12782933
182	0xbe32005b	-0.17382948
183	0x3cebc1ad	0.028778875
184	0xbd361dfa	-0.04446218
185	0x3c90efa7	0.0176924
186	0x3c4c489e	0.012468485
187	0x3b9a3519	0.0047060368
188	0x3d807a6e	0.062733516
189	0xbcd72ada	-0.02626555
190	0x3c53722f	0.012905641
191	0x3d206b03	0.039164554
192	0x3de89f25	0.113584794
193	0x3d7ca0f7	0.061676946
194	0x3d8d5865	0.069016255
195	0xbd965d7f	-0.07342052
196	0x3d40bc6e	0.0470547
197	0x3c1eb871	0.009687529
198	0xbd8b026c	-0.06787571
199	0xbd87ab6f	-0.06624495
200	0x3df4168f	0.11918365
201	0xbe2adcf8	-0.16685855
202	0x3d71c785	0.059028167
203	0x3dfa6fb7	0.12228339
204	0x3caed69f	0.021342574
205	0x3d8c0f1d	0.0683882
206	0xbcc149cb	-0.023594758
207	0x3cb001b6	0.02148519
208	0xbc9540e2	-0.018219415
209	0x3dd862ef	0.10565745
210	0x3c7dfe17	0.015502474
211	0xbcf12d37	-0.029440505
212	0x3e10f29f	0.14155053
213	0xbe0488a6	-0.12942752
214	0x3d1a9ab5	0.037745196
215	0x3d6e5180	0.058183193
216	0x3d7bf877	0.06151625
217	0x3ba7aeb2	0.005117261
218	0x3d5dc002	0.05413819
219	0x3e0b125c	0.13581222
220	0x3d4ad262	0.049517043
221	0x3dc9a7f1	0.098464854
222	0xbd9fbebd	-0.07800052
223	0x3c2d92cd	0.010594082
224	0x3cd08183	0.025452381
225	0xbcb3dc6e	-0.021955695
226	0xbd6c3019	-0.057663057
227	0x3b96d584	0.0046030898
228	0xbcad5128	-0.021156862
229	0x3d442a74	0.04789205
230	0x3cb2d060	0.021827877
231	0xbd39bd71	-0.04534668
232	0x3d9980b3	0.074952506
233	0x3df3e129	0.1190818
234	0xbd8992f3	-0.067174815
235	0xb8cf7390	-9.8920544e-05
236	0xbd658455	-0.056034405
237	0xbdc3f14e	-0.095675096
238	0xbc541a88	-0.012945779
239	0x3e109191	0.14118029
240	0x3d0c55f9	0.034261677
241	0xbced3e76	-0.028960448
242	0x3d22a917	0.039712038
243	0xbbf3681c	-0.0074281823
244	0x3cf9b02f	0.030479519
245	0x3df7c9b9	0.120990224
246	0xbcb5d02a	-0.022193987
247	0xbba8b5e7	-0.0051486376
248	0xbd82eb30	-0.06392515
249	0x3cda1e2f	0.02662572
250	0xbd770f99	-0.06031761
251	0xbd0109f1	-0.03150362
252	0xbd4cf1cc	-0.050035283
253	0xbdb09714	-0.08622566
254	0x3d963d4f	0.073359124
255	0xbc107e3a	-0.008819157
