question4/bidirectional_tcn_model_3.pth (torch, 171160 bytes, 38 tensors)

forward_tcn.network.0.conv1.weight f4 [16, 3, 2]
0	0xbdb3bd2a	-0.087763146
1	0xbea37943	-0.31928453
2	0x3d237b86	0.039912723
3	0x3ec8c17f	0.39210126
4	0xbed22a19	-0.41047743
5	0x3e1a56d6	0.15072188
6	0xbcec8965	-0.028874109
7	0x3e30f6e4	0.17281681
8	0xbe15dd48	-0.14635193
9	0xbecc5069	-0.39905098
10	0x3d9a08b1	0.07521189
11	0xbe488247	-0.19580947
12	0x3ea85d93	0.3288389
13	0x3cdc3f75	0.026885727
14	0xbe9c2354	-0.30495703
15	0x3bf54034	0.0074844602
16	0xbe843a34	-0.25825655
17	0x3e712b53	0.23551683
18	0xbdeedf49	-0.11663682
19	0xbe824edb	-0.25450787
20	0x3ea9e599	0.33182982
21	0xbe34ea96	-0.17667612
22	0x3e75b7e4	0.2399593
23	0x3e431862	0.1905227
24	0x3e99c7db	0.3003529
25	0x3e3375b8	0.17525375
26	0xbeb76954	-0.35822546
27	0x3e3eb28f	0.18622802
28	0xbd81b85c	-0.06333992
29	0x3e9ac3e0	0.30227566
30	0xbd5dedde	-0.054181926
31	0xbe7fcb17	-0.24979816
32	0xbc88284b	-0.016620776
33	0x3e892c30	0.26791525
34	0x3e06e1eb	0.13172118
35	0x3e319d9b	0.17345278
36	0x3eac3c95	0.3363997
37	0x3da687c9	0.08131368
38	0xbe3303a0	-0.17481852
39	0xbe86be86	-0.26317233
40	0xbeb73cb8	-0.35788512
41	0x3e1aa65d	0.15102525
42	0xbeb85a17	-0.36006233
43	0xbe56f43e	-0.20991609
44	0xbeb8f1a4	-0.36121857
45	0xbd58b219	-0.052904222
46	0x3e44be4c	0.19213217
47	0xbc9db319	-0.01925044
48	0x3e4fa1f1	0.2027662
49	0x3e2fed34	0.1718033
50	0xbe1f32f6	-0.15546784
51	0xbc17a053	-0.009254533
52	0x3e7afc1c	0.24510235
53	0xbda3130f	-0.079626195
54	0x3e09e641	0.13466741
55	0xbca79a0b	-0.020459196
56	0xbea71bbb	-0.32638344
57	0x3d5ef185	0.05442955
58	0x3e134165	0.14380415
59	0x3bdd6127	0.006755966
60	0xbe6fa3e0	-0.23402357
61	0x3de50b08	0.11183745
62	0x3e6744d7	0.22584854
63	0x3e2b1dba	0.16710559
64	0xbe1fc074	-0.15600759
65	0x3e9a3a03	0.30122384
66	0x3bbd9cd9	0.00578652
67	0x3ddb7fbd	0.107177235
68	0x3e8778f1	0.26459458
69	0xbeaf3ff7	-0.3422849
70	0xbe7100d4	-0.23535472
71	0x3d4266ba	0.04746125
72	0xbebb7c97	-0.36618492
73	0x3ecb3074	0.39685404
74	0xbdf8de0e	-0.121517286
75	0xbe060291	-0.13086917
76	0xbe55a67b	-0.20864289
77	0xbc6d5146	-0.014484709
78	0x3d80538d	0.06265936
79	0x3e27d9e4	0.16391712
80	0xbe607c31	-0.21922375
81	0x3ea59c46	0.3234579
82	0x3e6386b4	0.22219354
83	0xbd47debe	-0.048796408
84	0xbe4e744c	-0.20161551
85	0x3de55c9d	0.11199305
86	0x3e91304b	0.28357157
87	0x3bef0a70	0.0072949454
88	0xbe26a87f	-0.16275214
89	0xbe50d23d	-0.203927
90	0xbea700b3	-0.3261772
91	0x3b8188d5	0.003953079
92	0x3ecadaf7	0.39620182
93	0x3c5736c5	0.013135617
94	0x3e7229f7	0.23648821
95	0xbebe4724	-0.3716365

forward_tcn.network.0.conv1.bias f4 [16]
0	0xbe571581	-0.21004297
1	0xbe81e08e	-0.25366634
2	0xbea9306b	-0.33044752
3	0x3af5f0d1	0.0018763785
4	0x3ea6b8a6	0.3256275
5	0x3e93ced1	0.28868726
6	0xbe65d23c	-0.2244348
7	0x3e1fdfa6	0.15612659
8	0x3e15fe7e	0.14647862
9	0xbd2a0470	-0.04150814
10	0x3e4fb51b	0.2028393
11	0xbebefd38	-0.37302566
12	0x3d5354bf	0.051594492
13	0xbdcf8442	-0.10132648
14	0xbda274bb	-0.07932421
15	0xbebc0032	-0.367189

forward_tcn.network.0.conv2.weight f4 [16, 16, 2]
0	0x3c833071	0.01601431
1	0xbba38a19	-0.0049908278
2	0xbdc3562c	-0.0953792
3	0xbdb144e4	-0.08655718
4	0xbbcbe76a	-0.006222655
5	0xbd96a533	-0.07355728
6	0x3e48946c	0.19587868
7	0x3cd43447	0.025903834
8	0xbe31ca29	-0.17362274
9	0xbe02f193	-0.12787466
10	0x3c33ac0a	0.01096631
11	0xbce98ac0	-0.028508544
12	0x3d85458f	0.06507408
13	0xbd0934e1	-0.033497695
14	0xbd95187b	-0.0728006
15	0xbc0e7447	-0.008694715
16	0xbd8a2ca2	-0.06746794
17	0xbd6eb0d4	-0.058274105
18	0xbe928a82	-0.28621298
19	0xbe1d1e60	-0.15343618
20	0xbd13f07b	-0.036118012
21	0x3d27c257	0.04095682
22	0xbd9e24bb	-0.077218495
23	0xbe3744ea	-0.17897382
24	0x3db7d715	0.089765705
25	0xbe7f05e3	-0.2490459
26	0xbe538c7a	-0.20659056
27	0x3ddad34d	0.10684834
28	0xbc7067bf	-0.0146731725
29	0x3d81116b	0.0630215
30	0x3df91a55	0.121632256
31	0x3dfbc8cd	0.12294159
32	0x3e031bd8	0.1280359
33	0xbe4526eb	-0.19253127
34	0x3dcd5a7d	0.10027025
35	0xbe800b0e	-0.25008434
36	0xbd949f81	-0.072569855
37	0xbcf2e958	-0.029652283
38	0x3de7ed30	0.11324537
39	0x3e05fc8d	0.13084622
40	0xbc202064	-0.0097733475
41	0x3d5e8412	0.05432517
42	0x3e3a1598	0.181723
43	0xbd09eda8	-0.033673912
44	0x3e3b2547	0.18275939
45	0xbcecefd7	-0.028922958
46	0xbe1995d0	-0.14998555
47	0xbd29712e	-0.041367702
48	0x3c3d0be3	0.011538479
49	0x3e174972	0.14774111
50	0xbdba3186	-0.09091477
51	0xbe25c186	-0.16187105
52	0xbdb78e15	-0.08962647
53	0x3e01b9ae	0.12668487
54	0x3dbf6286	0.09344964
55	0xbd01d3df	-0.031696197
56	0xbca807f4	-0.020511605
57	0xbdd1e0b9	-0.102479406
58	0x3e136159	0.14392604
59	0x3e1d2434	0.15345842
60	0xbe10b1b3	-0.14130287
61	0x3ddb3e0d	0.107051946
62	0x3e1862a6	0.14881381
63	0xbdde47bb	-0.10853525
64	0xbd0f45ac	-0.034978554
65	0xbe2f5371	-0.17121674
66	0x3b9f6547	0.004864368
67	0x3dc2b6c0	0.09507513
68	0xbdc1a364	-0.094549924
69	0xbe3081a2	-0.17236951
70	0x3e53176b	0.20614402
71	0xbd5b3578	-0.05351779
72	0xbd8d2f6b	-0.0689381
73	0x3ddeafdb	0.108733855
74	0xbdc406a7	-0.09571581
75	0xbddd0ba8	-0.10793239
76	0x3db2526e	0.087071285
77	0xbe6040af	-0.21899675
78	0x3e0c686b	0.13711707
79	0x3d79ca97	0.06098422
80	0xbe6d09d0	-0.23148274
81	0x3e09c9e7	0.13455926
82	0xbe3c60ce	-0.18396303
83	0x3e28f9e7	0.1650158
84	0xbdfa06a7	-0.122083
85	0xbd3c1a22	-0.04592336
86	0x3e6a9fd8	0.22912538
87	0xbe335359	-0.17512263
88	0x3e19423b	0.14966671
89	0xbdd8f4a5	-0.10593537
90	0x3d027edd	0.031859268
91	0x3e3455fc	0.17610925
92	0xbe92ccc0	-0.28671837
93	0x3df4cdb2	0.11953296
94	0xbddf36db	-0.10899135
95	0x3d86d434	0.06583443
96	0x3e0384e1	0.12843658
97	0xbde3634c	-0.11102924
98	0xbe39b920	-0.18137026
99	0xbdaa6243	-0.08319523
100	0xbd8e8565	-0.06959037
101	0x3c5a322c	0.013317626
102	0x3dc67d67	0.09691887
103	0xbdcb1239	-0.09915585
104	0xbe16f826	-0.14743099
105	0x3df97dc3	0.1218219
106	0x3d0f7f30	0.035033405
107	0xbd20ff65	-0.039306063
108	0xbe6d562e	-0.23177406
109	0x3e2a815e	0.16650912
110	0xbe365cf6	-0.178089
111	0x3d87a695	0.0662357
112	0x3e1d0c2e	0.15336677
113	0x3df4cd91	0.11953271
114	0x3e042bd2	0.12907341
115	0x3cefe773	0.029285168
116	0x3e403e74	0.18773824
117	0xbd29c327	-0.041445877
118	0xbc8d928b	-0.017281791
119	0x3e14e809	0.1454164
120	0xbe2d9da8	-0.16954672
121	0x3d971871	0.07377709
122	0xbe0ef63e	-0.13961121
123	0x3d56a5e0	0.052404284
124	0x3e407bdb	0.18797247
125	0x3da91f13	0.0825788
126	0x3d2f772f	0.04283827
127	0xbd385d72	-0.04501099
128	0xbd8030c7	-0.062593035
129	0x3e0b2b1c	0.13590664
130	0x3d95dc8d	0.07317457
131	0x3d5be5de	0.053686015
132	0x3c6f25cd	0.014596415
133	0xbd4ef88a	-0.050529994
134	0x3de4552c	0.11149058
135	0x3c7360b9	0.014854603
136	0x3dfb8e5e	0.12283014
137	0x3e1ac15c	0.15112823
138	0x3e4f9450	0.2027142
139	0xbd928b10	-0.0715543
140	0xbdc200b1	-0.09472788
141	0x3db4565e	0.08805536
142	0x3d0f81ad	0.035035778
143	0xbe131425	-0.14363153
144	0x3de9fb44	0.11424878
145	0x3d5a753b	0.053334456
146	0x3a40f2c2	0.00073603925
147	0xbcb51c83	-0.022108322
148	0xbd95fd7a	-0.073237374
149	0xbe021059	-0.12701549
150	0xbe5e9160	-0.21735144
151	0x3b20ee0c	0.002455595
152	0x3d14fc45	0.036373395
153	0x3e35172f	0.17684625
154	0xbdd90c8b	-0.105980955
155	0x3de357df	0.111007445
156	0xbc2b6266	-0.010460472
157	0x3da44639	0.080212064
158	0xbe0e21f5	-0.13880141
159	0x3e0daf1f	0.13836335
160	0x3e1a2db8	0.15056503
161	0xbcc10997	-0.023564143
162	0x3e15b135	0.1461838
163	0x3e00245d	0.12513871
164	0x3e52754d	0.20552559
165	0x3dd1f7e1	0.10252357
166	0xbdd56b29	-0.1042083
167	0xbe055bd3	-0.1302331
168	0x3e1471e0	0.14496565
169	0xbdb312e5	-0.08743838
170	0xbdc111cc	-0.094272226
171	0xbd9664a5	-0.07343415
172	0x3d9fee16	0.07809083
173	0xbd88b51e	-0.0667517
174	0x3e053d89	0.13011755
175	0x3e329de7	0.17443047
176	0xbe1e9f9e	-0.15490577
177	0x3d81145d	0.06302712
178	0xbdf6870c	-0.12037477
179	0xbd5133cb	-0.051074784
180	0x3cb62aab	0.022237143
181	0xbcf980ed	-0.030456984
182	0xbd9785ad	-0.073985435
183	0x3e721e32	0.23644331
184	0xbda418dc	-0.08012554
185	0xbd9f2b68	-0.07771951
186	0xbda4d5fd	-0.080486275
187	0x3c7d1062	0.0154458005
188	0xbd897ec6	-0.06713633
189	0xbd4bf807	-0.049797084
190	0xbe0b9b02	-0.1363335
191	0xbe247cd5	-0.16063245
192	0xbd022214	-0.03177078
193	0xbd583985	-0.05278923
194	0xbd8aa308	-0.06769377
195	0xbe34460f	-0.1760485
196	0x3e19700b	0.14984147
197	0x3e036e2d	0.12834997
198	0xbdf457a4	-0.119307786
199	0xbdbbbdfd	-0.09167097
200	0xbd08204d	-0.03323393
201	0xbe451889	-0.1924764
202	0x3de3d421	0.11124445
203	0xbe25382f	-0.16134714
204	0x3dbe54b3	0.09293499
205	0x3da89bb6	0.082328245
206	0x3e07d432	0.1326454
207	0xbd92a29b	-0.07159921
208	0xbe04dd00	-0.1297493
209	0x3d628dc5	0.055310983
210	0x3ce1624c	0.027512692
211	0x3df96c88	0.12178904
212	0xbe3a372c	-0.18185109
213	0x3e10d1d2	0.1414254
214	0x3e124447	0.14283858
215	0x3c9c68e8	0.019092992
216	0xbdc2f932	-0.095201865
217	0xbdab3a66	-0.08360748
218	0xbe2c53cf	-0.16828845
219	0x3df6aa8c	0.12044248
220	0x3d281b1e	0.041041486
221	0x3dc2cd4e	0.09511815
222	0xbd8acf2c	-0.06777796
223	0xbdcc3dec	-0.09972748
224	0x3e00a528	0.12563002
225	0x3d98640d	0.07440958
226	0x3e54eb30	0.20792842
227	0xbc201272	-0.009770023
228	0x3e0cfae1	0.13767578
229	0xbdca68fb	-0.09883305
230	0xbea8ef2d	-0.32994977
231	0x3c99fc6a	0.018797118
232	0xbc9b0dda	-0.018927503
233	0x3e4085da	0.1880106
234	0xbd6cd249	-0.05781773
235	0x3d818765	0.063246526
236	0x3d85ff6e	0.0654286
237	0xbe38bad0	-0.18040013
238	0xbc0c4e64	-0.008563612
239	0xbaa19c1a	-0.0012329847
240	0xbda2b3d0	-0.07944453
241	0xbd687b41	-0.05675817
242	0xbcb284d4	-0.021791853
243	0xbe0e6bde	-0.13908336
244	0xbdc6fc0e	-0.09716044
245	0x3d2387fc	0.039924607
246	0xbde31edf	-0.110898726
247	0xbe1851ce	-0.14874956
248	0x3dc1ca57	0.094624214
249	0x3dc8c42f	0.09803044
250	0xbe0a8c92	-0.13530186
251	0x3e6bfe52	0.23046234
252	0xbd93d53e	-0.07218407
253	0xbd63009f	-0.055420514
254	0x3d9544ed	0.07288537
255	0xbe1fe3b5	-0.15614207

forward_tcn.network.0.conv2.bias f4 [16]
0	0x3d969bfc	0.073539704
1	0x3b841aa2	0.004031495
2	0xbe26df61	-0.1629615
3	0xbe3017a5	-0.1719652
4	0x3d8526fe	0.06501578
5	0xbc9e9443	-0.019357806
6	0x3d7f1dd7	0.062284317
7	0xbd9bc732	-0.07606353
8	0xbe123992	-0.14279774
9	0x3d68983d	0.05678581
10	0xbc9b3187	-0.018944515
11	0x3e417c84	0.18895155
12	0xbe02e591	-0.12782885
13	0xbe002a27	-0.1251608
14	0x3e02dd74	0.1277979
15	0x3e26e97c	0.16300005

forward_tcn.network.0.net.weight f4 [16, 3, 1]
0	0x3e39b56f	0.18135618
1	0x3f175a2e	0.5912198
2	0x3ecc4e5e	0.3990354
3	0x3d55715a	0.052110054
4	0x3e03f998	0.12888181
5	0x3f00004e	0.50000465
6	0xbf00d67b	-0.5032727
7	0x3f028c05	0.509949
8	0x3ede7117	0.43445656
9	0x3be02ece	0.006841517
10	0xbed864ae	-0.42264313
11	0x3cd19ff0	0.02558896
12	0x3ef97463	0.4872161
13	0xbe9a96cd	-0.30193177
14	0x3f075d17	0.5287642
15	0xbcb276e2	-0.021785203
16	0xbef80a74	-0.48445475
17	0xbf0023b7	-0.50054497
18	0x3d4cf5d4	0.050039127
19	0xbccefe10	-0.02526763
20	0xbf14bf0c	-0.58104014
21	0x3e565744	0.20931727
22	0xbe0bfb6b	-0.13670127
23	0xbdd6f49b	-0.104958735
24	0x3ec94798	0.39312434
25	0x3e2d4934	0.16922456
26	0xbef85234	-0.48500216
27	0xbee8b720	-0.45452213
28	0xbb96e282	-0.0046046386
29	0x3ec412a2	0.38295466
30	0xbef475a8	-0.47746015
31	0xbed1a3f9	-0.40945414
32	0xbead6055	-0.33862558
33	0x3ed1a890	0.40948915
34	0x3e77cacb	0.24198453
35	0x3e549eb1	0.20763661
36	0x3ebacc9d	0.36484233
37	0xbe282d91	-0.16423632
38	0xbd8d8818	-0.069107234
39	0x3e70be2b	0.23510043
40	0x3dc22866	0.09480362
41	0xbf12a088	-0.572762
42	0xbe22b8e6	-0.15890846
43	0x3e1dd666	0.15413818
44	0xbe1ffe2c	-0.15624303
45	0xbe3b4344	-0.18287379
46	0xbe96c313	-0.29445705
47	0xbeae2433	-0.34011993

forward_tcn.network.0.net.bias f4 [16]
0	0x3ec0ae39	0.3763292
1	0x3ede247a	0.43387204
2	0xbe4a40e4	-0.19751316
3	0x3f06b51f	0.5262012
4	0xbe93eda5	-0.28892246
5	0xbe16af90	-0.1471541
6	0xbe472960	-0.19449377
7	0xbec0fcb3	-0.37692794
8	0x3e084737	0.13308416
9	0xbd0a6f69	-0.033797655
10	0x3ee405bf	0.44535634
11	0xbeed65e3	-0.46366796
12	0xbe7502f1	-0.23926903
13	0xbe9664fe	-0.29373926
14	0xbf012c18	-0.50457907
15	0xbecd518b	-0.40101275

forward_tcn.network.1.conv1.weight f4 [32, 16, 2]
0	0xbe26f409	-0.1630403
1	0xbd3970fc	-0.045273766
2	0x3d832a05	0.06404499
3	0xbd74e06a	-0.05978433
4	0xbd21ac45	-0.03947093
5	0xbc872770	-0.016498297
6	0x3c55b48f	0.013043537
7	0x3e38cef5	0.18047698
8	0xbc7391c4	-0.014866296
9	0x3daa9473	0.08329096
10	0x3e0af767	0.13570939
11	0xbdd99de6	-0.1062582
12	0xbe0278ed	-0.12741442
13	0xbe31e3ca	-0.17372051
14	0xbbc15975	-0.0059005567
15	0xbd5ef0d9	-0.05442891
16	0xbbb23054	-0.00543789
17	0xbe1793a1	-0.1480241
18	0x3db67686	0.08909325
19	0x3e724834	0.23660356
20	0x3d31f54f	0.043446835
21	0x3d1d5993	0.038415503
22	0x3e03d1e8	0.12873042
23	0x3d9b04af	0.07569253
24	0x3dcf20b8	0.101136625
25	0xbb2b9f4c	-0.0026187478
26	0xbdec99eb	-0.11552795
27	0xbcfd4b2e	-0.030919638
28	0xbe368f61	-0.17828132
29	0xbe0ec3e5	-0.13941915
30	0x3e0ee575	0.13954718
31	0xbc6bb2a1	-0.01438585
32	0xbe1810e5	-0.14850195
33	0xbe1956f5	-0.14974578
34	0x3e1a29d1	0.15055014
35	0x3d92a7fc	0.07160947
36	0x3b18716c	0.0023260964
37	0xbe1247f5	-0.14285262
38	0x3e300b38	0.1719178
39	0xbe131376	-0.14362893
40	0xbe0c481f	-0.13699387
41	0xbe0fc3b3	-0.14039497
42	0x3e0d7d71	0.13817383
43	0x3e00a948	0.12564576
44	0xbc9cb7d2	-0.019130621
45	0x3e102e89	0.14080252
46	0x3dc92771	0.09821976
47	0xbdfcac4c	-0.123375505
48	0xbdd280eb	-0.102784954
49	0x3d761cf5	0.06008621
50	0x3da76a81	0.08174611
51	0xbd30799c	-0.043084726
52	0xbe4553db	-0.1927027
53	0x3df5520d	0.119785406
54	0x3e1777c5	0.14791782
55	0x3c914cd6	0.017736834
56	0xbe004187	-0.12524997
57	0x3d2b979c	0.041892633
58	0x3e2000f3	0.15625362
59	0x3e2b5dbc	0.16734976
60	0x3b8cd519	0.004297864
61	0x3c945ecf	0.018111615
62	0x3e2b7905	0.16745384
63	0x3d9a5e94	0.075375706
64	0x3b691e26	0.0035570948
65	0xbd0783b4	-0.033084586
66	0x3de1af8a	0.110198095
67	0x3e0b18cb	0.13583677
68	0xbc1ca9f1	-0.009562002
69	0xbe5a31a0	-0.21307993
70	0xbc9e76a4	-0.019343682
71	0xbd7c9a7d	-0.06167077
72	0xbe5dcbff	-0.2165985
73	0x3da0aacb	0.07845076
74	0x3dafcd8e	0.08584128
75	0x3e1742d4	0.14771587
76	0xbbe0bafd	-0.0068582282
77	0x3e1dbbd1	0.15403678
78	0xbd7c1067	-0.06153908
79	0xbc92c427	-0.017915798
80	0x3d914782	0.07093717
81	0x3cf29f40	0.029616952
82	0x3e4a7e35	0.19774707
83	0x3d7c771b	0.061637025
84	0xbc9f2169	-0.01942511
85	0xbe10c6f3	-0.14138393
86	0x3dd8bfe6	0.10583477
87	0xbd083454	-0.03325303
88	0x3c2460ca	0.010032842
89	0x3e9747be	0.29546922
90	0xbdfa040a	-0.12207802
91	0x3e50d7a5	0.20394762
92	0x3e6c7b37	0.23093878
93	0xbddc9380	-0.10770321
94	0x3c350d25	0.011050497
95	0xbd91e5d3	-0.071239136
96	0x3dc9614b	0.0983301
97	0x3dc7dbc6	0.09758715
98	0x3dfc4145	0.12317137
99	0x3e0627d8	0.13101137
100	0xbcfb17ff	-0.03065109
101	0x3d85db62	0.065359846
102	0x3de1ba0e	0.11021815
103	0x3e17d452	0.14827088
104	0x3dc730e0	0.09726119
105	0xbe2adbd6	-0.16685423
106	0x3cf9ce50	0.030493885
107	0x3d3b6e3c	0.045759425
108	0xbcbfd7dc	-0.02341836
109	0xbca679eb	-0.020321807
110	0xbe0eb517	-0.13936268
111	0x3dadf7df	0.08494543
112	0x3d46ed90	0.0485664
113	0x3d9c6ea9	0.07638294
114	0xbe1bdc1b	-0.15220682
115	0xbc2b3c27	-0.010451353
116	0x3d61cb8c	0.055125758
117	0x3df871ee	0.12131105
118	0x3c34bba0	0.011031061
119	0xbe0fa054	-0.14026004
120	0x3e54ab0c	0.20768374
121	0xbd750978	-0.059823483
122	0xbe1e18da	-0.15439168
123	0xbce04a6b	-0.027379235
124	0x3c970e64	0.01843948
125	0xbdad9ff4	-0.08477774
126	0x3d929bf8	0.07158655
127	0xbd8e352d	-0.06943736
128	0xbcfb7afe	-0.030698296
129	0x3eac229e	0.3362016
130	0xbd4728c2	-0.048622854
131	0x3e15af11	0.14617564
132	0xbe8b2a28	-0.271806
133	0x3e79a75d	0.2438025
134	0x3cf5effb	0.030021658
135	0x3b89c605	0.004204514
136	0x3e1a8429	0.15089478
137	0xbe12d80b	-0.14340226
138	0x3d17314a	0.03691224
139	0xbe972856	-0.2952296
140	0x3c14d1d6	0.009083232
141	0x3d8f4e77	0.06997388
142	0xbd9f6a3b	-0.07783934
143	0xbd9159a8	-0.07097179
144	0xbc157f32	-0.009124564
145	0xbdbd30c1	-0.09237815
146	0xbe956bdb	-0.2918385
147	0xbd4b92c1	-0.049700502
148	0x3e17ea3d	0.14835449
149	0xbde0976e	-0.10966383
150	0xbdce2f14	-0.10067573
151	0x3d8af112	0.06784262
152	0x3dc51ad2	0.09624256
153	0xbc975c01	-0.018476488
154	0x3e14d4c3	0.14534287
155	0x3d271030	0.040786922
156	0xbd2740f1	-0.040833417
157	0x3de83e55	0.11340014
158	0x3ce5a1b8	0.028031215
159	0x3c515ed5	0.012778957
160	0xbd24c2c1	-0.040224794
161	0xbdfe945e	-0.124306425
162	0xbd215f87	-0.039397743
163	0x3d282763	0.041053187
164	0x3e308de5	0.17241628
165	0xbc7ab86b	-0.015302758
166	0xbc584049	-0.0131989205
167	0x3de005c2	0.10938598
168	0xbd0757b2	-0.033042617
169	0x3dec0f55	0.11526362
170	0x3c8929be	0.016743537
171	0xbda785ed	-0.08179841
172	0xbd130aec	-0.035899088
173	0x3da7f965	0.08201865
174	0x3c9a0b1f	0.018804131
175	0x3e0bc5b7	0.13649641
176	0x3e05b002	0.13055423
177	0x3c60a5b8	0.013711385
178	0x3e1c0e41	0.15239812
179	0x3e83be17	0.25730965
180	0xbdec8ade	-0.11549924
181	0x3e1c8eb1	0.15288807
182	0xbd1b6ef4	-0.03794761
183	0xbd10b586	-0.035329364
184	0xbdfd3f38	-0.12365574
185	0xbdd5feee	-0.104490146
186	0xbde6d495	-0.112710156
187	0x3d29ac78	0.041424245
188	0x3de59278	0.11209577
189	0xbca7d546	-0.020487439
190	0xbd108616	-0.035284124
191	0x3e1d9dc4	0.15392214
192	0xbdddfdc1	-0.10839415
193	0x3d39d238	0.045366496
194	0x3e0b73ea	0.13618436
195	0xbe562d61	-0.20915748
196	0x3de38c8d	0.11110792
197	0x3d027e5e	0.031858794
198	0xbd96345c	-0.073342055
199	0xbd124a76	-0.035715543
200	0xbc830da7	-0.01599772
201	0xbddcedfc	-0.107875794
202	0x3d9e2514	0.07721916
203	0x3e0a1420	0.1348424
204	0x3d9c9cc5	0.07647089
205	0x3c8b81e5	0.017029712
206	0x3e176a9b	0.1478676
207	0xbe18e12f	-0.1492965
208	0xbdb7057c	-0.08936593
209	0x3cf42ea0	0.029807389
210	0xbdcd11cb	-0.10013159
211	0x3d7eeb96	0.06223639
212	0xbd3880e3	-0.04504479
213	0x3e25a879	0.16177548
214	0x3e2608bb	0.16214268
215	0x3e288569	0.16457142
216	0xbe3540a7	-0.17700444
217	0x3e0aba3d	0.13547607
218	0x3e09c3e0	0.13453627
219	0x3d40f72d	0.047110725
220	0xbddac65e	-0.10682367
221	0xbdd94d63	-0.106104635
222	0xbd8ecd1c	-0.06972715
223	0x3d90c349	0.07068498
224	0x3d17eabf	0.037089106
225	0x3de665ec	0.11249909
226	0xbdb8af34	-0.09017792
227	0x3c83ad68	0.016073897
228	0x3e16aeaa	0.14715067
229	0x3e2426c9	0.1603042
230	0x3de8f69c	0.11375162
231	0x3c4ce84c	0.012506556
232	0xbda549e2	-0.08070733
233	0x3de8124a	0.11331613
234	0xbb45e817	-0.003019815
235	0xbc0dc302	-0.0086524505
236	0xbe206fd5	-0.1566766
237	0xbde22db2	-0.11043872
238	0xbcb46a26	-0.022023272
239	0xbe396857	-0.18106209
240	0x3daf761f	0.08567452
241	0xbe194f12	-0.14971569
242	0x3e1372ce	0.14399263
243	0xbe24e11c	-0.16101497
244	0x3dd56fe4	0.10421732
245	0x3e105e68	0.14098513
246	0xbe1c3d02	-0.15257648
247	0xbdedabcd	-0.11605034
248	0xbc9951d8	-0.018715784
249	0xbe3f835e	-0.18702456
250	0x3e1e5a49	0.15464129
251	0xbe2bc4f9	-0.16774358
252	0x3e0a6fae	0.13519165
253	0x3dc0453e	0.09388207
254	0xbdbf2366	-0.093329236
255	0xbe3da204	-0.18518835

forward_tcn.network.1.conv1.bias f4 [32]
0	0x3dca9963	0.098925374
1	0xbe00a458	-0.12562692
2	0xbdcc4b58	-0.09975308
3	0xbdb41411	-0.0879289
4	0xbccd31dd	-0.02504819
5	0xbe30f4cc	-0.17280883
6	0x3c9068a1	0.017628016
7	0x3cee1634	0.029063322
8	0xbd76c334	-0.060244754
9	0x3e17423e	0.14771363
10	0x3dbc17d4	0.09184232
11	0x3e16a34c	0.1471073
12	0x3d0484c5	0.03235318
13	0x3e2e3739	0.17013253
14	0xbe20e217	-0.15711246
15	0x3d0206d2	0.031744786
16	0xbd95da1d	-0.073169924
17	0x3e1402cf	0.14454196
18	0x3cf567ca	0.029956717
19	0x3b3d959d	0.0028928288
20	0x3de6961c	0.112591
21	0x3e47e363	0.19520335
22	0x3e286694	0.1644538
23	0x3cd3d083	0.025856262
24	0xbd9cf344	-0.07663587
25	0x3dfe9cf4	0.1243228
26	0xbdf41262	-0.11917569
27	0x3ce02fdd	0.027366573
28	0x3e424c41	0.18974401
29	0xbcb29699	-0.021800326
30	0x3e42c1ac	0.19019192
31	0xbdd84fdb	-0.10562106

forward_tcn.network.1.conv2.weight f4 [32, 32, 2]
0	0xbd9a06d9	-0.07520837
1	0x3cb9aa42	0.022664193
2	0xbbeb49b5	-0.0071804174
3	0xbcb2d128	-0.02182825
4	0x3d460aec	0.04835026
5	0xbd8252e2	-0.06363465
6	0xbda684ab	-0.08130773
7	0x3e13d6ea	0.14437452
8	0xbd0b97ca	-0.034080304
9	0xbdeab8b3	-0.1146101
10	0x3da7a6de	0.08186124
11	0x3e23e52a	0.16005388
12	0x3d137a6c	0.036005422
13	0x39ce0d4f	0.00039301298
14	0xbd3fcd95	-0.046826918
15	0x3d2bb827	0.04192367
16	0x3d8f9d07	0.070123725
17	0xbd30f4bc	-0.043202147
18	0xbd7bebaa	-0.061504044
19	0x3d08b042	0.033371218
20	0x3cf04787	0.029330982
21	0x3bc85499	0.0061136005
22	0x3cf6ef8e	0.030143525
23	0x3cccaebe	0.024985667
24	0x3d5e7bad	0.054317165
25	0xbd4c69d9	-0.04990563
26	0xbc9835f6	-0.018580418
27	0x3dfa9624	0.12235668
28	0xb9b35fae	-0.00034212827
29	0x3e3bffdd	0.18359323
30	0xbd1a0085	-0.03759815
31	0x3e12f50c	0.1435129
32	0x3de06dcf	0.10958444
33	0xbd36ca06	-0.04462626
34	0x3de1658a	0.11005695
35	0xbd97045c	-0.07373878
36	0xbd516466	-0.051121138
37	0x3e0301eb	0.127937
38	0xbcb97e98	-0.022643372
39	0x3d611e30	0.05496043
40	0xbd5d7eb6	-0.05407592
41	0xbc0a1ce6	-0.0084297415
42	0x3d8d5266	0.06900482
43	0x3e0d7b28	0.13816512
44	0xbdede47c	-0.116158456
45	0x39a4a9ef	0.00031407128
46	0x3d83d440	0.06436968
47	0xbd706723	-0.05869211
48	0x3c05a69d	0.0081573995
49	0xbd91ea95	-0.07124821
50	0x3a026e5e	0.00049755524
51	0x3dcdd612	0.10050596
52	0xbc0fc4b8	-0.008774929
53	0xbd86f69e	-0.06590007
54	0xbe06ec4b	-0.13176076
55	0xbe26eedb	-0.16302054
56	0xbd21396e	-0.03936141
57	0x3d9d5527	0.07682257
58	0x3c1db9d3	0.0096268235
59	0xbc4b314e	-0.012401892
60	0xbd40726d	-0.046984125
61	0xbd41b9ca	-0.047296323
62	0xbd8c82ad	-0.06860862
63	0x3e091c94	0.13389808
64	0xbdc03dcb	-0.09386786
65	0xbe3420ba	-0.17590609
66	0xbdc48499	-0.095956035
67	0xbde2178a	-0.11039646
68	0xbe9108b7	-0.2832696
69	0x3d4eaecc	0.050459668
70	0xbdb6ddeb	-0.08929046
71	0x3de409f9	0.11134715
72	0x3e1ee5e8	0.1551739
73	0x3e01d9c3	0.12680726
74	0xbd04dfce	-0.03244
75	0x3d59a883	0.05313922
76	0xbdd620b9	-0.1045546
77	0x3d69f1f3	0.057115506
78	0xbdb45924	-0.08806065
79	0xbdcd1d94	-0.10015407
80	0xbdf3a637	-0.11896937
81	0x3e0230d8	0.12713945
82	0x3da7e11d	0.08197234
83	0x3d851405	0.06497959
84	0xbd2e8dea	-0.04261581
85	0x3d323445	0.04350688
86	0x3de1cf23	0.11025836
87	0x3c3c20f2	0.011482464
88	0xbdcd853c	-0.10035178
89	0x3c07069e	0.008241324
90	0x3d01ce38	0.031690806
91	0xbd476289	-0.048677955
92	0xbd402996	-0.04691466
93	0xbe366dd7	-0.17815338
94	0x3d747764	0.059684172
95	0x3d25f77d	0.040519226
96	0xbd59b849	-0.053154264
97	0xbbeb64ef	-0.007183663
98	0x3c59a448	0.013283797
99	0x3b4b5845	0.0031027955
100	0xbd0e4a8e	-0.03473907
101	0xbca0cf6f	-0.019630162
102	0xbd76c273	-0.060244035
103	0x3d0e1880	0.034691334
104	0xbdcb0ab4	-0.09914151
105	0x3e56505a	0.20929089
106	0x3dc61e6c	0.09673771
107	0x3d0aa3f7	0.033847775
108	0x3e19e2a1	0.15027858
109	0x3e04994d	0.12949105
110	0x3ce23481	0.027612926
111	0xbdf05022	-0.11734034
112	0xbddb8be2	-0.1072004
113	0xbdcdf770	-0.100569606
114	0xbdecb0c4	-0.11557153
115	0xbdc54ba2	-0.096335664
116	0x3d3f52de	0.046709888
117	0xbce03708	-0.027369991
118	0xbd991e60	-0.07476497
119	0xbd837a4c	-0.06419811
120	0x3dd415f8	0.10355753
121	0xbd9f4d54	-0.07778421
122	0xbdcc93b6	-0.09989111
123	0x3d092b4e	0.033488564
124	0xbdb56bae	-0.08858429
125	0x3ccde578	0.025133833
126	0xbd390712	-0.04517276
127	0xbd85446e	-0.065071926
128	0xbd17530f	-0.036944445
129	0x3d981964	0.07426718
130	0xbc3f19fd	-0.011663911
131	0x3db4b9da	0.08824511
132	0xbd53f290	-0.051744998
133	0xbcf0a22d	-0.029374206
134	0xbb8632ac	-0.004095396
135	0x3c7d20f5	0.015449752
136	0xbe33a3bc	-0.17542928
137	0xbdcb7687	-0.09934717
138	0xbb8f6053	-0.0043754964
139	0x3e1273c9	0.14301981
140	0x3da3a730	0.07990873
141	0x3dd3cee7	0.10342198
142	0x3d10aba2	0.03531993
143	0x3de4e682	0.111767784
144	0x3d7d8a8a	0.0618997
145	0xbd80eb79	-0.06294913
146	0x3c89968e	0.016795423
147	0xbc9355d0	-0.017985255
148	0xbdec747a	-0.11545654
149	0x3dd2e9db	0.10298511
150	0x3d60ee92	0.05491502
151	0xbd8ec560	-0.0697124
152	0xbd9ebef3	-0.077512644
153	0x3d838b2b	0.064230286
154	0x3d3536e5	0.044241805
155	0xbd4acb0b	-0.049510043
156	0x3e66c50b	0.22536103
157	0x3e231ac0	0.15928173
158	0x3d1a5b03	0.03768445
159	0xbdc42b27	-0.09578543
160	0xbdcb14a3	-0.099160455
161	0xbd1bc917	-0.03803357
162	0x3d9abb8c	0.07555303
163	0x3d89bbe2	0.06725289
164	0x3c39cf82	0.011340978
165	0x3dcc7039	0.09982342
166	0xbcb7d358	-0.022439644
167	0xbda05890	-0.07829392
168	0x3e20ea58	0.15714395
169	0x3ca2d684	0.01987768
170	0x3c8d1db0	0.01722607
171	0x3d9e8f7d	0.07742212
172	0xbde4af8f	-0.11166298
173	0x3d4a1f3c	0.049346194
174	0x3d9d595a	0.07683058
175	0x3db3ff3d	0.08788917
176	0xbd304b06	-0.043040298
177	0x3d8e7dab	0.06957563
178	0xbcc52514	-0.024065532
179	0xbd776cb2	-0.060406394
180	0x3a53c368	0.0008078129
181	0x3d52bf5d	0.05145203
182	0x3dfcbcae	0.12340675
183	0xbc971731	-0.018443676
184	0x3c19eb03	0.00939441
185	0xbdc5879f	-0.09645008
186	0xbd8ac281	-0.0677538
187	0xbe32a99d	-0.17447515
188	0x3c17593b	0.009237583
189	0xbda88c43	-0.08229878
190	0x3e30af85	0.17254455
191	0xbc222a12	-0.009897726
192	0x3c5f679d	0.013635543
193	0x3d87674b	0.066114984
194	0x3dce1fde	0.10064672
195	0xbcff037f	-0.031129597
196	0x3e55d1fc	0.20880884
197	0xbe906c23	-0.28207502
198	0xbb11b708	-0.002223434
199	0x3cf97ac8	0.030454054
200	0xb9121b5c	-0.00013933837
201	0x3ddd70c0	0.10812521
202	0xbc253877	-0.010084263
203	0x3e06d530	0.13167262
204	0x3d5de47d	0.05417298
205	0x3d836b28	0.06416923
206	0x3cb7056a	0.022341449
207	0x3da4ce34	0.080471426
208	0xbddcb64a	-0.107769564
209	0xbdc8d330	-0.09805906
210	0xbdfd7fa5	-0.12377862
211	0x3bdfd0f8	0.006830331
212	0xbd407f52	-0.046996422
213	0x3dc8a3eb	0.0979689
214	0x3e083c30	0.1330421
215	0x3d88bef6	0.06677048
216	0xbd853848	-0.065048754
217	0x3c7664a9	0.015038648
218	0x3df01e65	0.11724547
219	0x3c6efad1	0.0145861665
220	0x3cb7fd65	0.022459695
221	0xbd8c19fd	-0.06840894
222	0xbd589c57	-0.052883472
223	0x3dce3110	0.10067952
224	0xbcf3017d	-0.029663796
225	0x3d3ab1ab	0.045579594
226	0xbda7aee7	-0.08187657
227	0xbbcad305	-0.0061897063
228	0x3cf50e3e	0.029914018
229	0x3dd21edc	0.10259792
230	0x3dbfd109	0.09366042
231	0x3db44765	0.0880268
232	0x3d45b8f8	0.048272103
233	0x3c24ae68	0.010051347
234	0xbe0cc4f1	-0.13747002
235	0xbda77e7e	-0.08178423
236	0x3ba97fdd	0.005172713
237	0xbdfd1131	-0.123567946
238	0xbcb0a583	-0.021563297
239	0xbd7d437c	-0.061831936
240	0xbd20130b	-0.03908066
241	0x3ddba447	0.10724693
242	0xbc9317e6	-0.017955732
243	0x3cbad6b9	0.022807466
244	0xbd2275da	-0.039663173
245	0x3da9dfed	0.082946636
246	0xbc22bfaa	-0.009933392
247	0xbd2fedad	-0.042951275
248	0xbdb32c7c	-0.08748719
249	0x3d115a18	0.03548631
250	0x3ce2e6e8	0.027697995
251	0xbdea6606	-0.11445241
252	0xbd56150c	-0.052266166
253	0xbc1932b8	-0.009350471
254	0x3cbea997	0.023274226
255	0x3e2581ef	0.16162847

forward_tcn.network.1.conv2.bias f4 [32]
0	0xba13eb61	-0.0005642679
1	0xbbc86df0	-0.006116621
2	0xbbe8d91b	-0.007105959
3	0x3dc2430d	0.09485445
4	0xbd083e8f	-0.033262786
5	0x3d2b8327	0.041873123
6	0xbd968ce5	-0.07351092
7	0xbc91f5ee	-0.017817464
8	0x3c9b8f56	0.018989246
9	0x3df58dc0	0.11989927
10	0xbc1c772a	-0.009549895
11	0xbd0100a8	-0.031494766
12	0xbc8b0c09	-0.016973512
13	0x3d53e1b4	0.05172892
14	0x3d3be3f3	0.045871686
15	0x3d7f57ba	0.062339522
16	0x3d0cce23	0.034376275
17	0x3dd17b76	0.102286264
18	0xbdd3e6fd	-0.10346792
19	0x3d2ce039	0.042206023
20	0x3da75d16	0.081720516
21	0x3dc43790	0.0958091
22	0xbd495d1a	-0.049161054
23	0x3d7a7a80	0.06115198
24	0xbdda457d	-0.10657785
25	0xbdc57065	-0.09640578
26	0x3da8d07a	0.08242889
27	0x3de52b35	0.11189882
28	0xbd69c03f	-0.057068106
29	0xbd8f7103	-0.07003977
30	0xbdc4885b	-0.0959632
31	0x3d3f8afa	0.046763398

forward_tcn.network.1.net.weight f4 [32, 16, 1]
0	0x3cb349f1	0.021885844
1	0x3e125a7b	0.14292328
2	0x3e41a93f	0.18912219
3	0xbde4acc3	-0.11165764
4	0x3e3133ac	0.17304868
5	0xbd41b0ec	-0.047287866
6	0x3df1e3a4	0.11810997
7	0x3d2946e3	0.04132737
8	0x3ddf9b0a	0.10918243
9	0xbd0df7a1	-0.034659985
10	0x3e386f89	0.18011297
11	0xbe5d2d84	-0.21599394
12	0xbe0df704	-0.1386376
13	0x3da99943	0.082811855
14	0xbcbc4420	-0.022981703
15	0xbe1f5e2c	-0.15563267
16	0xbe79670f	-0.2435572
17	0xbbe1d67e	-0.0068920245
18	0x3c46d509	0.0121357525
19	0xbd381d7a	-0.044949986
20	0xbe867477	-0.2626073
21	0x3e4e90ad	0.20172377
22	0x3d36f277	0.044664826
23	0xbe020cd2	-0.12700203
24	0x3dd8e410	0.105903745
25	0xbe93c1ed	-0.2885889
26	0xbe25ae59	-0.1617979
27	0xbe6d6466	-0.2318283
28	0xbe26f0e6	-0.16302833
29	0x3e03e3b0	0.12879825
30	0xbda79959	-0.081835456
31	0xbd84bfde	-0.06481908
32	0x3d8ee45d	0.069771506
33	0x3e554a9d	0.20829244
34	0xbdf99d93	-0.12188258
35	0xbc5598c5	-0.013036911
36	0xbe52a370	-0.20570159
37	0xbdcf5c54	-0.10125032
38	0x3dc27123	0.09494235
39	0xbd8f8b19	-0.07008953
40	0xbe240527	-0.1601759
41	0xbe313ac7	-0.17307578
42	0x3dc2a4f4	0.095041186
43	0xbe95d01d	-0.2926034
44	0xbe7c68d6	-0.24649367
45	0xbe5a6c00	-0.21330261
46	0xbe0fda42	-0.14048102
47	0xbda0d73e	-0.07853554
48	0xbe33d6fb	-0.17562477
49	0x3d0f2e7e	0.034956448
50	0x3d955d5c	0.072931975
51	0x3c2b220f	0.010445132
52	0x3e200d9e	0.15630195
53	0x3c9bec5d	0.019033605
54	0xbe343edf	-0.17602108
55	0xbd71eb13	-0.059062075
56	0xbe2be880	-0.1678791
57	0x3daff221	0.08591104
58	0x3dd97c10	0.10619366
59	0xbbed2e23	-0.007238166
60	0x3e56fe16	0.20995364
61	0x3e386f92	0.1801131
62	0x3e596ec2	0.21233657
63	0xbe1dd060	-0.1541152
64	0x3db465e2	0.08808495
65	0x3e7ee5de	0.24892375
66	0x3c9a2986	0.018818628
67	0xbe46c439	-0.1941079
68	0x3e18d147	0.14923583
69	0x3dfdef54	0.12399164
70	0xbe44f56a	-0.19234243
71	0x3e80066d	0.25004902
72	0xbe0e80a0	-0.13916254
73	0xbe8d98e9	-0.27655724
74	0xbcce8ce1	-0.02521366
75	0x3db4038e	0.087897405
76	0xbc77c9e2	-0.015123816
77	0x3e5c82b0	0.21534228
78	0x3d9aa4cd	0.075509645
79	0x3d47c5ce	0.048772626
80	0xbe1bf1c9	-0.15228952
81	0xbe2f7921	-0.17136051
82	0xbdf98fd9	-0.1218564
83	0x3dd259c2	0.10271026
84	0xbe1e36b4	-0.15450555
85	0x3d55d630	0.05220622
86	0x3d9de648	0.07709938
87	0x3e3e8104	0.18603903
88	0xbe14863f	-0.14504336
89	0xbdf37eef	-0.11889445
90	0xbceb57ea	-0.028728444
91	0xbc9f1a5b	-0.019421747
92	0xbd4e77b3	-0.050407123
93	0xbe572c6d	-0.21013041
94	0xbdc5735b	-0.09641143
95	0x3e82e525	0.25565448
96	0x3e094ae0	0.13407469
97	0xbdb231ef	-0.0870093
98	0x3c999903	0.01874972
99	0xbe5289e5	-0.20560415
100	0xbdb28d85	-0.08718399
101	0xbdbbd83c	-0.09172103
102	0x3e083d9c	0.13304752
103	0xbe547d5f	-0.2075095
104	0x3db1d8cd	0.086839296
105	0x3e36cdb7	0.17851911
106	0xbe10860d	-0.14113636
107	0x3e0c16b5	0.13680537
108	0xbe087937	-0.1332749
109	0xbdf223dd	-0.11823247
110	0x3e374fef	0.17901586
111	0x3d3512ed	0.044207502
112	0xbdeb2ef9	-0.11483569
113	0x3d1bdcee	0.03805249
114	0xbe0bc241	-0.1364832
115	0xbc32e12b	-0.010917942
116	0x3e646451	0.22303893
117	0x3df464a8	0.11933261
118	0x3dc85cb8	0.0978331
119	0x3963fe5b	0.00021743162
120	0xbe8125d5	-0.25224176
121	0x3e21b2db	0.15790884
122	0xbe2c451f	-0.16823243
123	0x3d6e8e39	0.058241103
124	0x3d802400	0.062568665
125	0xbe0e3aaf	-0.13889574
126	0xbe6bd0d3	-0.23028879
127	0x3e002f6f	0.12518094
128	0xbdf8208e	-0.12115584
129	0xbe012c21	-0.1261449
130	0xbd8f4387	-0.06995302
131	0x3dd11558	0.10209149
132	0x3e131275	0.1436251
133	0xbc04ceab	-0.008105914
134	0x3e6e523b	0.23273556
135	0x3df96d64	0.12179068
136	0xbdd4d9f2	-0.10393132
137	0x3e9b6bbf	0.3035564
138	0x3e265727	0.16244183
139	0x3e3ac34a	0.1823856
140	0x3e5668cc	0.20938414
141	0xbe4ed333	-0.20197754
142	0xbda3af98	-0.07992476
143	0x3e1bb231	0.15204693
144	0x3d85b4cb	0.06528624
145	0x3e2f33b5	0.17109568
146	0x3e6c6ba8	0.23087943
147	0x3e5492c8	0.20759118
148	0xbe4c0e7a	-0.19927397
149	0xbe23b914	-0.1598857
150	0xbd946e1f	-0.072475664
151	0x3d46080e	0.048347525
152	0xbe81c8fb	-0.25348648
153	0x3e2ab044	0.16668802
154	0x3ce0d4ec	0.027445279
155	0x3d80d701	0.06291009
156	0x3d519060	0.051163077
157	0xbd466f91	-0.04844624
158	0x3e3fbff7	0.18725573
159	0xbe1f6aca	-0.1556808
160	0xbe006103	-0.12537007
161	0x3e203183	0.15643887
162	0x3e74e730	0.23916316
163	0x3bab94a5	0.0052362257
164	0x3daf059e	0.08545993
165	0x3e55e612	0.20888546
166	0xbe0535fc	-0.13008875
167	0xbe519137	-0.20465551
168	0x3e2ec8ec	0.17068833
169	0x3d8cf51d	0.06882689
170	0x3e68b90f	0.22726844
171	0x3e53c698	0.20681226
172	0xbe7d844a	-0.24757496
173	0xbd30fcb2	-0.04320974
174	0x3d9b990c	0.07597551
175	0xbd715611	-0.05891997
176	0x3e6f312d	0.23358603
177	0x3e88fe95	0.2675673
178	0xbe521ccc	-0.20518798
179	0xbe5efc49	-0.21775927
180	0x3e7f6b05	0.24943168
181	0x3e0be170	0.13660216
182	0x3e03af53	0.1285985
183	0x39bc7cea	0.00035951223
184	0x3e15d9ec	0.14633912
185	0xbe1d34ce	-0.15352175
186	0xbc2001b2	-0.009766029
187	0x3deb4ee8	0.114896595
188	0x3e667dcc	0.22508925
189	0xbe63c174	-0.22241765
190	0x3d81888f	0.063248746
191	0xbe7c444c	-0.24635428
192	0xbe44d1e8	-0.19220698
193	0x3e3d251e	0.1847119
194	0x3def62e6	0.11688785
195	0x3da1166a	0.07865603
196	0x3e84a411	0.25906423
197	0xbe7c25c9	-0.24623789
198	0xbe26bc5e	-0.16282794
199	0x3e6f412c	0.23364705
200	0xbda6a90c	-0.08137712
201	0x3e6f56e9	0.23372997
202	0x3c85d536	0.016337018
203	0x3d4b3294	0.049608782
204	0xbe5983f6	-0.21241745
205	0xbde26967	-0.1105526
206	0x3dbcc8a0	0.09217954
207	0x3e5bdf65	0.21471937
208	0xbd548f37	-0.051894393
209	0xbe8d36fe	-0.27581018
210	0xbdeffad2	-0.11717762
211	0xbe23cfaf	-0.15997194
212	0xbd9ee5bc	-0.07758662
213	0x3e208bb9	0.156783
214	0xbdca3002	-0.09872438
215	0x3e5989ac	0.21243924
216	0xbe2cbb8a	-0.16868415
217	0x3e7f3fe4	0.24926716
218	0x3dbdcacf	0.09267198
219	0x3dd5fa72	0.10448159
220	0xbc33ea30	-0.010981128
221	0xbcf433e9	-0.029809909
222	0x3e24bcf1	0.160877
223	0x3e07f000	0.13275146
224	0xbe8d6af2	-0.27620655
225	0xbe8c3743	-0.2738591
226	0xbe4caacd	-0.1998703
227	0x3e35333f	0.1769533
228	0xbe618d9c	-0.22026676
229	0x3e7eae0a	0.24871078
230	0x3dcd590e	0.100267515
231	0x3e5c5a97	0.21518932
232	0xbdfbb471	-0.12290276
233	0xbd60cd46	-0.054883264
234	0xbe178140	-0.14795399
235	0xbe7c04a4	-0.24611145
236	0x3e86b61e	0.2631082
237	0x3d06610f	0.032807406
238	0x3da5352e	0.08066784
239	0xbe035c88	-0.12828267
240	0xbd840a21	-0.064472444
241	0x3d25b7d2	0.040458508
242	0xbe80ec50	-0.25180292
243	0x3e8136bb	0.2523707
244	0xbe077e64	-0.13231808
245	0xbdd46b3f	-0.10372018
246	0x3d966545	0.073435344
247	0x3d7069bb	0.058694582
248	0x3e538afe	0.2065849
249	0x3e345d0d	0.17613621
250	0xbd809cd7	-0.06279915
251	0x3e284100	0.16431046
252	0x3d9b3c73	0.07579889
253	0xbe7ccce4	-0.24687535
254	0x3e07db9a	0.13267365
255	0xbe399a25	-0.18125208

forward_tcn.network.1.net.bias f4 [32]
0	0x3e6425da	0.22280064
1	0x3c551c7a	0.013007278
2	0xbdda07f1	-0.10646046
3	0xbe50de87	-0.20397387
4	0xbddac808	-0.10682684
5	0xb9978dc6	-0.00028906594
6	0x3e1baec8	0.15203393
7	0xbe08edee	-0.13372013
8	0xbdfe2614	-0.124096066
9	0xbd3ee324	-0.046603337
10	0xbe374966	-0.17899093
11	0x3d3644e3	0.04449929
12	0xbda62521	-0.081125505
13	0x3d87aea9	0.06625111
14	0x3e2ab692	0.16671208
15	0x3e2b29cb	0.16715162
16	0x3c14a49a	0.009072447
17	0xbe2e585c	-0.17025894
18	0x3e272080	0.16320992
19	0x3e06913e	0.13141343
20	0xbe81ba8c	-0.25337636
21	0x3d501441	0.050800566
22	0x3e5646cc	0.20925444
23	0x3e379fcc	0.17932051
24	0xbc1df3f1	-0.00964068
25	0x3da52b01	0.08064843
26	0xbdc043ed	-0.09387956
27	0xbe50bacd	-0.20383759
28	0x3deeeec1	0.116666324
29	0xbe2b1cc4	-0.16710192
30	0x3e23e700	0.16006088
31	0x3e4ca58f	0.1998503

forward_tcn.network.2.conv1.weight f4 [64, 32, 2]
0	0xbdb57cea	-0.08861716
1	0xbda4fdaf	-0.08056199
2	0x3dc2078d	0.094740964
3	0xbd19c382	-0.037539966
4	0xbd3bf33e	-0.04588627
5	0xbd52e516	-0.051488005
6	0x3d10c16d	0.035340715
7	0x3d19d63a	0.037557818
8	0xbbf32b2e	-0.007420919
9	0xbd0d2113	-0.03445537
10	0x3d64ee4c	0.05589132
11	0xbcc25eaf	-0.02372679
12	0xbe13f867	-0.14450227
13	0xbbfdf11f	-0.007749691
14	0x3de630a5	0.11239747
15	0x3d00c8e4	0.031441584
16	0x3e56848b	0.20948999
17	0xbcc5cb2e	-0.024144735
18	0xbe0c2683	-0.13686566
19	0x3d060ebe	0.032728903
20	0x3bd7779d	0.0065755383
21	0x3d895643	0.06705906
22	0xbdb07ff9	-0.08618159
23	0x3c3b0f98	0.011417292
24	0xbd9660e3	-0.073426984
25	0x3e18a8be	0.1490812
26	0x3e0373c8	0.12837136
27	0x3d9389f2	0.07204045
28	0x3dab31bc	0.083590955
29	0x3d90c4a2	0.07068755
30	0x3dc7e4cd	0.09760437
31	0x3e0410f7	0.12897097
32	0x3b7091a7	0.003670791
33	0x3db34db8	0.08755058
34	0x3de19f3f	0.11016702
35	0x3d84e482	0.06488897
36	0xbc1006d2	-0.008790689
37	0x39f73fa2	0.0004715892
38	0xbd9add6b	-0.075617634
39	0x3cc4108e	0.023933675
40	0x3d2b2408	0.04178241
41	0x3d25e9c5	0.040506143
42	0x3e1570bf	0.1459379
43	0x3dc4e0de	0.096132025
44	0xbd3c814e	-0.046021752
45	0x3de8387d	0.11338899
46	0x3d70bdc2	0.058774717
47	0x3cb76cdc	0.022390775
48	0xbda3cfd4	-0.079986244
49	0xbdc1a25f	-0.09454798
50	0x3d291f5e	0.04128968
51	0x3cc9a809	0.024616258
52	0x3ddcb8b4	0.10777417
53	0xbd98eb51	-0.07466758
54	0x3b2d7a2c	0.0026470525
55	0x3b88902a	0.0041675763
56	0x3e1de803	0.15420537
57	0xbd53c3e1	-0.051700477
58	0xbdad40d3	-0.0845963
59	0xbdb58d66	-0.0886486
60	0x3e59896b	0.21243827
61	0x3d6bcaf1	0.057566587
62	0x3e1f7b4d	0.1557438
63	0x3e014ad4	0.12626201
64	0x3dc4087c	0.09571931
65	0x3de5e184	0.11224654
66	0x3b9b003e	0.0047302535
67	0xbda98001	-0.08276368
68	0x3d1ae430	0.037815273
69	0xbda398f6	-0.07988159
70	0xbcaeced5	-0.02133886
71	0xbdd304b2	-0.1030363
72	0xbc272565	-0.010201787
73	0xbc57680d	-0.013147366
74	0x3d286fd5	0.041122276
75	0xbd290a56	-0.041269623
76	0x3dbac99c	0.09120485
77	0x3e0a670a	0.13515869
78	0xbcf2739a	-0.029596139
79	0xbe0e2462	-0.13881066
80	0xbdcee7c1	-0.10102797
81	0xbe12a3b4	-0.1432026
82	0xbd802182	-0.06256391
83	0xbb75d27b	-0.003750949
84	0x3d8e9ab8	0.06963104
85	0xbcf8482d	-0.030307854
86	0xbd407b14	-0.046992376
87	0x3b6a510e	0.0035753879
88	0x3dc87fd5	0.09790007
89	0xbcd82937	-0.02638684
90	0x3ad4a12a	0.0016222347
91	0xbe391004	-0.18072516
92	0xbd7c14f5	-0.061543424
93	0xbe045196	-0.12921748
94	0xbd2fbb27	-0.04290309
95	0xbaf7ca01	-0.0018904806
96	0x3e02d0bd	0.1277494
97	0xbdbe8187	-0.09302049
98	0xbd1dc0f8	-0.038514107
99	0xbd6d70c3	-0.057968866
100	0x3d812130	0.06305158
101	0x3d0d89e3	0.034555327
102	0x3df6c86e	0.12049948
103	0xbcf879d3	-0.030331528
104	0x3d975695	0.07389561
105	0xbc62ee75	-0.013850798
106	0xbd81ba30	-0.063343406
107	0x3db3d536	0.08780901
108	0xbdf962a8	-0.1217702
109	0xbda25465	-0.07926253
110	0x3dd36a0a	0.1032296
111	0x3dcf324e	0.10117017
112	0x3e089195	0.13336785
113	0x3d83de0e	0.06438838
114	0x3e1b7e2b	0.15184848
115	0x3de6e4ea	0.11274131
116	0xbd80195b	-0.06254836
117	0x3e018054	0.1264661
118	0x3d969813	0.073532246
119	0x3d84e380	0.06488705
120	0xbcc8136f	-0.02442333
121	0xbdbfaf04	-0.093595535
122	0x3d7c623a	0.061617114
123	0xbdeb0c23	-0.11476924
124	0x3d21be00	0.03948784
125	0xbd35842e	-0.04431551
126	0xbda4a763	-0.08039739
127	0xb9a0bee4	-0.00030659803
128	0x3dbae68b	0.09126004
129	0xbd4fd260	-0.05073774
130	0xbd99968c	-0.07499418
131	0x3b9e853a	0.004837659
132	0x3e13ff8d	0.14452954
133	0x3d15945f	0.03651845
134	0xbce77364	-0.028253265
135	0xbde78a3c	-0.11305663
136	0x3cc7069b	0.024295142
137	0xbc47b925	-0.012190138
138	0xbe1c9c7c	-0.15294069
139	0x3dbe9b0d	0.09306917
140	0xbc47af06	-0.012187725
141	0x3d96044a	0.07325037
142	0x3d55f602	0.052236564
143	0xbdb2d30f	-0.087316625
144	0x3ca2da02	0.019879345
145	0xbdedf017	-0.11618059
146	0x3df25459	0.11832494
147	0x3d1f248e	0.03885322
148	0x3c5d8050	0.013519362
149	0xbe0f902c	-0.14019841
150	0x3e064f30	0.13116145
151	0xbd42ca71	-0.047556344
152	0xbde7131b	-0.11282941
153	0xbd888b5c	-0.06667206
154	0x3d7a9cae	0.061184578
155	0xbde03ae6	-0.10948734
156	0xbd9e8df8	-0.07741922
157	0x3d29f8d3	0.041497063
158	0x3e03c8fc	0.12869638
159	0x3e0c6e76	0.13714013
160	0xbdd9f411	-0.10642255
161	0x3d4bef2c	0.04978864
162	0xbb2a4df3	-0.0025986403
163	0x3cca2c9c	0.024679475
164	0xbd969cd9	-0.07354135
165	0xbcc303ba	-0.023805488
166	0xbd0b0840	-0.033943415
167	0x3d2d7d98	0.042356104
168	0xbd8700b3	-0.0659193
169	0x3d360bec	0.044444963
170	0xbd6112c5	-0.05494954
171	0xbdcdd319	-0.10050029
172	0xbd77fd75	-0.06054445
173	0xbde9a59f	-0.11408543
174	0xbdc466b7	-0.09589904
175	0x3d720cf1	0.059094373
176	0xbd7991f5	-0.06093021
177	0x3abe538f	0.0014520752
178	0x3d9086ea	0.07056983
179	0xbde17f4c	-0.11010608
180	0xbd1442ae	-0.036196403
181	0x3dea3a41	0.11436892
182	0x3d87ac75	0.066246904
183	0x3d816194	0.0631744
184	0xbd08d3e2	-0.033405192
185	0xbd519dc8	-0.051175863
186	0xbd87c7dd	-0.06629918
187	0x3d6b6e4b	0.05747823
188	0xbd9bf640	-0.07615328
189	0x3dc2f33e	0.09519051
190	0xbdd674a7	-0.104714684
191	0x3d5ba55e	0.053624503
192	0xbcc2fc92	-0.023802076
193	0xbd78a9f8	-0.06070897
194	0xbcfb5e19	-0.030684518
195	0xbd2e45cc	-0.042547032
196	0xbde0c62d	-0.10975299
197	0xbddfaba7	-0.10921412
198	0xbd2f95fd	-0.04286765
199	0x3df644cd	0.120248415
200	0x3c7dded8	0.015495025
201	0xbd675c72	-0.056484647
202	0x3e322535	0.17397006
203	0x3cbd966d	0.023143018
204	0x3dbc48ec	0.09193596
205	0xbda281f0	-0.0793494
206	0xbd9f894f	-0.077898614
207	0xbd438d3c	-0.047742113
208	0x3c3bf9c7	0.011473126
209	0x3c87b44a	0.01656546
210	0xbd5e380c	-0.05425267
211	0xbe1166d8	-0.14199388
212	0x3dc063fa	0.09394069
213	0xbbf2481f	-0.0073938514
214	0x3c9436fb	0.018092623
215	0x3e0aecdf	0.13566922
216	0xbde48503	-0.111581825
217	0x3d86a645	0.06574682
218	0xbb869d9b	-0.0041081435
219	0x3da73975	0.08165256
220	0x3e3f1220	0.18659258
221	0xbe007c45	-0.12547405
222	0xbbbc2386	-0.0057415394
223	0xbd0df286	-0.034655116
224	0x3d74e6a1	0.059790257
225	0xbd6d85e7	-0.057989027
226	0xbda0b6ae	-0.078473434
227	0x3db45def	0.08806979
228	0x3d2fd37f	0.042926308
229	0x3d81f5b2	0.06345691
230	0xbd36c3e0	-0.044620395
231	0x3dbe7cf5	0.093011774
232	0x3dce609f	0.10077023
233	0x3dbc2d9c	0.09188387
234	0x3dd153c8	0.10221058
235	0xbd23b478	-0.03996703
236	0x3dcca9d3	0.09993329
237	0xbda8a87b	-0.0823526
238	0x3d5a4e61	0.053297404
239	0xbd2cefb1	-0.042220775
240	0xbda5d3d3	-0.08097043
241	0xbdb647dd	-0.089004256
242	0xbddd645a	-0.10810156
243	0xbd344dac	-0.044019386
244	0xbcb98522	-0.02264649
245	0x3d0b8b10	0.034068167
246	0xbd886318	-0.06659526
247	0xbcde52e1	-0.02713913
248	0x3e0f6edf	0.14007138
249	0xbe2f7d7a	-0.1713771
250	0x3d33917a	0.04383991
251	0xbd5794ac	-0.05263202
252	0x3dc3801c	0.09545919
253	0x3de780e4	0.11303881
254	0x3dcbc18b	0.09949025
255	0xbd36a449	-0.04459027

forward_tcn.network.2.conv1.bias f4 [64]
0	0xbc9ae465	-0.018907735
1	0x3d9bc2ea	0.07605536
2	0x3e06374c	0.13107032
3	0xbdc4efc3	-0.096160434
4	0xbda86146	-0.082216784
5	0xbce2939b	-0.027658274
6	0x3d3747f9	0.044746373
7	0xbd16399f	-0.036676046
8	0xbd8d7770	-0.069075465
9	0xbc11a4a1	-0.008889348
10	0xbd4f32a8	-0.05058542
11	0x3d1ceae6	0.038309954
12	0x3d8b220e	0.06793605
13	0xbdcb92be	-0.09940098
14	0x3d8efb99	0.06981582
15	0x3d826fa2	0.063689485
16	0x3df84f48	0.12124497
17	0x3dbb3ead	0.09142814
18	0xbdc62658	-0.09675282
19	0x3c3fa79b	0.011697675
20	0xbda6138a	-0.081091955
21	0x3da3dbf1	0.08000935
22	0xbdd67e91	-0.104733594
23	0xbd277617	-0.040884104
24	0x3ceb8de0	0.028754175
25	0xbd2aa399	-0.041659925
26	0x3d5aec78	0.05344817
27	0xbdd73c36	-0.10509531
28	0xbd02c55c	-0.031926498
29	0x3d000555	0.031255085
30	0x3d59aefc	0.053145394
31	0x3d6610fb	0.056168538
32	0xbc72edcc	-0.014827203
33	0xbd638a42	-0.055551775
34	0xbcc8ae3b	-0.024497142
35	0xbdadc501	-0.08484841
36	0x3e0262ee	0.12733051
37	0x3be309a9	0.006928642
38	0xbcfbc99b	-0.030735781
39	0x3dcae970	0.09907806
40	0xbcfd1cd5	-0.030897537
41	0x3de01e6d	0.10943303
42	0xbc87ae59	-0.016562628
43	0x3dc46429	0.095894165
44	0x3c2bc60e	0.010484232
45	0xbdc3163d	-0.09525726
46	0x3d0f615e	0.035004966
47	0x3d03fce8	0.032223612
48	0x3deaf287	0.1147204
49	0x3d01dbc2	0.031703718
50	0xbdac4d17	-0.08413141
51	0x3de8de7c	0.113705605
52	0x3db56fe8	0.08859235
53	0x3dc79bd9	0.097465225
54	0xbbc3484a	-0.0059595453
55	0xbd979630	-0.07401693
56	0xbda0e605	-0.07856373
57	0x3da824e4	0.08210161
58	0x3db3c138	0.08777088
59	0xbd36ce6c	-0.044630453
60	0xbcef0335	-0.029176334
61	0xbaa3873a	-0.0012476214
62	0xbdd4320c	-0.10361108
63	0xbda7727c	-0.08176133

forward_tcn.network.2.conv2.weight f4 [64, 64, 2]
0	0x3dcd06f1	0.100110896
1	0xbd8becd9	-0.068322845
2	0xbdc4e480	-0.096138954
3	0xbcfd7e29	-0.030943947
4	0xbd23c8dc	-0.039986476
5	0x3d42460a	0.047430076
6	0x3ce7dff4	0.028305031
7	0x3d94f65f	0.07273554
8	0xbc75503f	-0.014972745
9	0xbd8459cb	-0.06462439
10	0xbdcad21e	-0.09903358
11	0x3e3cfabc	0.18455023
12	0x3b2ba15b	0.0026188705
13	0xbd0c285a	-0.03421817
14	0x3bad82ff	0.005295157
15	0xbca09e88	-0.019606844
16	0xbe282364	-0.1641975
17	0x3da6fb56	0.08153407
18	0xbd7260ca	-0.059174336
19	0xbd9fddfa	-0.078060105
20	0x3cd8439e	0.02639943
21	0x3d90ddd2	0.07073559
22	0xbdc8773d	-0.09788368
23	0xbe06738c	-0.13130015
24	0x3d811e6b	0.0630463
25	0x3bdac9e2	0.0066768983
26	0x3d4c01ae	0.04980629
27	0xbc6391b8	-0.0138897225
28	0x3d88f79c	0.06687853
29	0xbd2fe12c	-0.04293935
30	0xbcd82c6a	-0.026388366
31	0x3e07d36d	0.13264246
32	0xbd453118	-0.048142523
33	0x3bc4feab	0.006011804
34	0x3d67f715	0.05663212
35	0xbdeead98	-0.11654204
36	0xbcca597b	-0.02470087
37	0x3db605c0	0.088878155
38	0x3d104f1e	0.035231702
39	0x3d86506f	0.0655831
40	0xbc1bba31	-0.009504841
41	0x3dee63b2	0.11640109
42	0x3d0be95f	0.034158107
43	0xbe4ef5a6	-0.20210895
44	0x3c0eb750	0.008710697
45	0x3c67f930	0.014158532
46	0xbd2dd91a	-0.042443372
47	0xbdbfba8c	-0.09361753
48	0x3c9c457f	0.019076107
49	0xbd34b576	-0.044118367
50	0xbd854394	-0.0650703
51	0xbc3ee5f6	-0.011651507
52	0xbaa390d2	-0.0012479073
53	0x3d032f0d	0.032027293
54	0xbd196631	-0.037450973
55	0xbd2908c3	-0.04126812
56	0x3b1ddb02	0.0024086838
57	0x3c34aa20	0.011026889
58	0xbdd7d27d	-0.10538194
59	0x3b50d4eb	0.003186519
60	0xbd234189	-0.03985742
61	0xbd503a0b	-0.050836604
62	0xbd560249	-0.052248273
63	0xbc48acf7	-0.012248269
64	0xbd9001df	-0.07031607
65	0x3dc49e15	0.09600464
66	0xbe0de60d	-0.13857289
67	0xbcdb1474	-0.026743151
68	0x3d35fbdd	0.04442965
69	0x3d8284e2	0.06373002
70	0xbd4f34d5	-0.050587494
71	0xbd56338b	-0.05229525
72	0xbda3cf83	-0.07998564
73	0x3c8c167e	0.017100569
74	0x3c6b42d6	0.014359197
75	0x3dc920eb	0.09820732
76	0xbd05fd16	-0.032712065
77	0x3bddc101	0.0067673926
78	0x3c416337	0.01180344
79	0x3dcc0e74	0.09963694
80	0xbbd7c9be	-0.006585329
81	0xbbafebf3	-0.0053687035
82	0xbd3e6471	-0.046482507
83	0xbd0815d7	-0.033223953
84	0xbdd20339	-0.10254521
85	0xbd751ec6	-0.0598438
86	0xbcdbe58b	-0.026842853
87	0x3db17db5	0.08666555
88	0x3bb1c740	0.005425364
89	0x3c7f2dcf	0.015574886
90	0x3c0e7826	0.008695638
91	0x3d2e6386	0.04257538
92	0x3dc7bc43	0.09752705
93	0xbd29bda1	-0.04144061
94	0x3cc77224	0.024346419
95	0x3db34055	0.08752505
96	0x3daf456d	0.08558164
97	0x3c3c9a31	0.0115113715
98	0xbb01014c	-0.001968461
99	0xbad7699a	-0.001643467
100	0xbd68a341	-0.056796316
101	0x3d1b7087	0.03794911
102	0x3d55b535	0.052174766
103	0x3ce7575b	0.028239897
104	0x3dbfa9cd	0.09358559
105	0x3df94066	0.12170486
106	0xbd5ea068	-0.054352194
107	0xbd5392dd	-0.05165373
108	0x3d31ad5a	0.04337821
109	0xbdab5fe3	-0.08367898
110	0xbddd6357	-0.10809963
111	0xbd2f68ca	-0.042824544
112	0xbd9fcd68	-0.0780285
113	0x3daf90a7	0.08572512
114	0x3d3ab0e0	0.045578837
115	0x3d99474d	0.07484303
116	0x3ce90992	0.028446946
117	0xbcaec656	-0.021334808
118	0xbd7d8d5b	-0.061902385
119	0xbcb0a8a7	-0.021564795
120	0x3cd30035	0.025756935
121	0xbdc421f9	-0.09576792
122	0x3d5b9939	0.05361292
123	0x3da985d7	0.08277481
124	0xbc8745ce	-0.016512778
125	0x3dd796d7	0.10526817
126	0xbd95a825	-0.07307462
127	0x3dafa4c3	0.08576348
128	0x3d65f300	0.056139946
129	0x3d5bba11	0.053644244
130	0xbc1c7d9d	-0.009551433
131	0xba61ab85	-0.0008608627
132	0x3cc87815	0.024471322
133	0xbcc82699	-0.024432467
134	0xbd7c7cb0	-0.06164235
135	0x3db5ce45	0.088772334
136	0x3d21997c	0.039453015
137	0x3d230eb8	0.03980896
138	0xbdfcf97f	-0.12352275
139	0x3d1a8f91	0.03773457
140	0x3cc56278	0.024094805
141	0x3d376161	0.044770602
142	0x3cae103e	0.02124798
143	0x3d8d9c24	0.06914547
144	0xbd77fdea	-0.060544886
145	0x3d8e1e14	0.06939331
146	0xbc8b17db	-0.016979149
147	0x3d22ca68	0.03974381
148	0x3bc3a92e	0.0059710955
149	0x3d0e1768	0.03469029
150	0xbd7c2e2b	-0.061567467
151	0xbdaf9e39	-0.085751005
152	0xbd9d4fae	-0.07681213
153	0xbd309548	-0.043111116
154	0xbda5b082	-0.08090307
155	0x3d6fe82f	0.058571037
156	0x3c81b8ea	0.015835244
157	0xbd5fd029	-0.054641876
158	0x3b9be126	0.0047570644
159	0xbdcd049c	-0.10010645
160	0x3ba42666	0.0050094603
161	0x3d5f118d	0.054460097
162	0xbd89d7c9	-0.06730611
163	0x3ce8337f	0.028344868
164	0xbde6cbf9	-0.112693734
165	0xbd6fc0e5	-0.058533568
166	0xbd939550	-0.072062135
167	0x3a1156f3	0.00055442675
168	0xbd3b6bf0	-0.045757234
169	0x3ce66d3f	0.028128264
170	0x3e3afb4a	0.18259922
171	0x3daaac3d	0.08333633
172	0x3d15e6b2	0.03659696
173	0xbd6f0526	-0.05835452
174	0x3c214240	0.009842455
175	0xbd66a1c4	-0.056306615
176	0x3d91250a	0.07087143
177	0xbc38645a	-0.011254394
178	0xbce49133	-0.027901268
179	0xbd8bc676	-0.06824963
180	0x3d069f59	0.03286681
181	0x3c8a479b	0.016879847
182	0x3b844f73	0.0040377914
183	0x3ccda2dd	0.025102073
184	0xbda411f8	-0.0801124
185	0xbd2e28f0	-0.04251951
186	0x3d643c21	0.055721406
187	0x3d4ddf2f	0.050261673
188	0xbda1631d	-0.078802325
189	0x3d64ae2c	0.055830166
190	0xbd6f0c5c	-0.058361396
191	0x3ba70dd9	0.0050980863
192	0x3c3d0cdb	0.0115387095
193	0x3d1957ed	0.03743737
194	0x3de41b1e	0.11137985
195	0x3d116c74	0.03550382
196	0x3cbb947a	0.022897948
197	0xbc378908	-0.011202104
198	0x3d5ffc26	0.054683827
199	0xbd2468ef	-0.040139135
200	0x3d9f1a0f	0.07768642
201	0x3cd148dd	0.02554744
202	0xbc818190	-0.01580885
203	0xbd01a54b	-0.031651776
204	0xbd8c181f	-0.06840538
205	0x3d96a198	0.0735504
206	0xbcae8797	-0.021304889
207	0xbd5b18e4	-0.053490534
208	0x3d4b0540	0.049565554
209	0xbba19670	-0.0049312636
210	0x3d19a6e1	0.037512664
211	0x3c80b86a	0.015712935
212	0xbd32d954	-0.04366429
213	0xbd15af38	-0.036544055
214	0x3c9a056a	0.01880141
215	0x3bf41ecb	0.00744996
216	0x3cc08680	0.023501635
217	0x3d600276	0.054689847
218	0xbd22981f	-0.039695855
219	0xbd8607b8	-0.06544441
220	0x3c44a09d	0.012001184
221	0x3bcb58ef	0.00620567
222	0xbd337cb7	-0.04382011
223	0x3d811f07	0.06304746
224	0x3c262395	0.010140319
225	0xbd607e9a	-0.054808237
226	0xbd7db47a	-0.061939694
227	0xbc06355b	-0.008191432
228	0x3cd2bb96	0.025724214
229	0x3d5723c5	0.052524347
230	0xbd52d634	-0.05147381
231	0x3d2e9af6	0.04262825
232	0xbd7b432a	-0.06134335
233	0xbe21ab64	-0.15788037
234	0xbd1340be	-0.035950415
235	0xbc8d0eae	-0.017218914
236	0x3d6196bd	0.055075396
237	0x3d071ad3	0.032984566
238	0xbd7567e3	-0.059913527
239	0xbd89b27a	-0.06723495
240	0xbd11c7df	-0.035591003
241	0x3a25b385	0.0006321001
242	0x3d981aa5	0.07426957
243	0x3dba65a4	0.09101418
244	0xbcf81745	-0.030284533
245	0x3d4cc967	0.04999676
246	0xbd334d99	-0.043775175
247	0x3d34575c	0.044028625
248	0x3d8b6823	0.06806972
249	0x3d90cfa9	0.07070858
250	0xbe41da40	-0.18930912
251	0x3d31eb77	0.043437447
252	0xbdb94072	-0.09045495
253	0xbd4b8c34	-0.049694255
254	0xbccc87bc	-0.024967067
255	0x3d5fee46	0.054670595
